ckpt/checkpoint_critic.pth (torch_old, 542604 bytes, 5 tensors)

fcs1.weight f4 [400, 33]
0	0xbdf63889	-0.12022502
1	0xbd9bc969	-0.07606775
2	0xbe06145f	-0.13093708
3	0xbd8366c3	-0.064160846
4	0x3deac9f7	0.11464303
5	0xbe086593	-0.13319997
6	0xbc4dcc5b	-0.012560929
7	0x3df519d4	0.11967817
8	0xbde823af	-0.11334931
9	0x3e23df10	0.1600306
10	0x3e0d9e78	0.13829982
11	0x3e3baea6	0.18328342
12	0x3e8023d6	0.2502734
13	0x3ce071ae	0.027397957
14	0x3f094a7a	0.5362927
15	0x3eb83c7b	0.35983643
16	0xbdac28a5	-0.0840619
17	0xbd196564	-0.03745021
18	0x3e2dc13d	0.16968246
19	0x3ee87873	0.45404395
20	0x3d509416	0.050922476
21	0xbd3ceaa5	-0.046122212
22	0xbe14c6ed	-0.14529009
23	0x3e3bca91	0.18338992
24	0x3d429ba5	0.047511715
25	0x3e6050f8	0.21905887
26	0xbde84b47	-0.11342483
27	0x3f223240	0.63357925
28	0xbeb78089	-0.35840252
29	0x3c9a7f76	0.018859606
30	0xbf2449bc	-0.6417501
31	0x3c7987e4	0.015230153
32	0xbf816a0d	-1.0110489
33	0x3db58ecd	0.08865128
34	0x3eb394e6	0.35074538
35	0xbe3803fd	-0.17970271
36	0xbe5fa09b	-0.2183861
37	0xbe9ab216	-0.30213994
38	0x3e7167f5	0.23574813
39	0xbe5cbecb	-0.21557157
40	0x3e64b7cf	0.22335742
41	0x3e780e11	0.24224116
42	0xbee222fc	-0.44167316
43	0x3e2d7467	0.16938935
44	0x3dcdc55b	0.10047408
45	0x3d1b633e	0.03793644
46	0xbe5a4b45	-0.21317776
47	0x3e67f96f	0.22653745
48	0x3e47cad8	0.19510972
49	0xbce16fb0	-0.027519077
50	0x3ec4c56c	0.3843187
51	0xbe912597	-0.2834899
52	0xbe23f381	-0.16010858
53	0x3e02655d	0.1273398
54	0xba33386b	-0.0006836715
55	0xbc48675b	-0.012231673
56	0x3dbf8d6b	0.09353145
57	0x3e0b4d8f	0.13603805
58	0x3e680681	0.22658731
59	0xbe3791b4	-0.17926675
60	0x3f39fe68	0.7265382
61	0x3d9a7192	0.07541193
62	0xbcb4bf50	-0.022063881
63	0xbf413edc	-0.7548654
64	0x3d40e6d5	0.04709514
65	0x3fb982b3	1.4493011
66	0x3eab0fb1	0.3341041
67	0x3ea41f1a	0.3205498
68	0x3e816fd2	0.25280625
69	0x3e06c1aa	0.13159814
70	0x3e6e993f	0.23300646
71	0xbebfa2ce	-0.37428898
72	0x3e30efcc	0.17278975
73	0xbdb4ff19	-0.088377185
74	0x3e839eec	0.25707185
75	0x3e7f9213	0.24958067
76	0x3e7e2648	0.2481929
77	0xbdb1972c	-0.08671412
78	0x3ebafffe	0.36523432
79	0x3e045d00	0.12926102
80	0x3e6ba63d	0.23012634
81	0xbd956b30	-0.07295835
82	0xbe8480d4	-0.25879538
83	0xbe36c100	-0.17847061
84	0x3e5b1004	0.21392828
85	0x3d1901a4	0.03735508
86	0x3ec174aa	0.3778432
87	0x39d19364	0.000399734
88	0xbe22a539	-0.1588334
89	0xbd236f04	-0.039900795
90	0x3df1afee	0.11801134
91	0xbe226473	-0.15858631
92	0xbd36e36f	-0.04465049
93	0x3ed0f0a8	0.40808606
94	0x3dd951e4	0.106113225
95	0x3c2334e8	0.009961344
96	0xbebb5cb8	-0.36594176
97	0xbd146230	-0.03622645
98	0xbeace492	-0.33768135
99	0x3dfd03f2	0.12354268
100	0x3e36a551	0.178365
101	0x3f1e813d	0.6191595
102	0xbe362764	-0.17788464
103	0x3e80fc3a	0.25192434
104	0xbf11cce0	-0.5695324
105	0x3f118206	0.56839025
106	0x3e7d2e0f	0.24724601
107	0x3f02036d	0.5078648
108	0xbd74ba6b	-0.059748095
109	0x3e73ef6f	0.23821805
110	0x3e4f88a6	0.20266971
111	0x3e632bf6	0.22184739
112	0x3dc32944	0.09529355
113	0x3eb2d0e0	0.34924984
114	0xbe19db7c	-0.15025133
115	0x3d0ba9f5	0.03409763
116	0xbde3d877	-0.11125272
117	0xbe941fb3	-0.28930435
118	0x3eb23afe	0.34810632
119	0xbe8732af	-0.26405856
120	0xbe11254b	-0.14174382
121	0xbd830af8	-0.063985765
122	0xbd265eeb	-0.040617865
123	0x3e46e8ec	0.1942479
124	0x3e13457c	0.14381975
125	0xbd4fb8b6	-0.050713263
126	0x3eb64267	0.35597536
127	0xbe93839f	-0.28811356
128	0xbc8a0234	-0.016846754
129	0xbe93990d	-0.28827706
130	0xbc406c98	-0.011744641
131	0x3ead6bc0	0.3387127
132	0xbe2458de	-0.16049525
133	0x3e8cf4e7	0.27530596
134	0x3d801c36	0.06255381
135	0xbed545f8	-0.41654944
136	0x3e7e6c6a	0.24846044
137	0x3f89a513	1.0753502
138	0x3ea89f42	0.32934004
139	0x3d413cc8	0.047177106
140	0xbcbbb0a8	-0.022911385
141	0xbe491bac	-0.19639462
142	0xbd8dacd1	-0.06917728
143	0x3e72ea5e	0.23722216
144	0x3d157d74	0.036496595
145	0x3d3fe89e	0.0468527
146	0xbdfaae5c	-0.12240288
147	0xbd6e796d	-0.05822127
148	0x3f089df0	0.53365993
149	0x3df19d19	0.11797542
150	0x3e33032d	0.1748168
151	0x3cdea2ed	0.027177298
152	0x3e2297ae	0.15878174
153	0xbd74d3f3	-0.059772443
154	0xbcd8bd74	-0.026457526
155	0xbe59dbd1	-0.2127526
156	0xbe50fdfa	-0.20409384
157	0xbde62a4e	-0.11238538
158	0x3dd4ed13	0.10396781
159	0x3f4dbd8d	0.80367357
160	0x3cef1b11	0.029187711
161	0x3c0fadac	0.008769434
162	0xbf57b90d	-0.8426674
163	0xbc8c526c	-0.017129146
164	0x3dc4bd5f	0.09606432
165	0xbe711ebf	-0.23546885
166	0x3dd57866	0.10423355
167	0xbd95dd1a	-0.073175624
168	0xbe69b00b	-0.22821061
169	0xbe2056ea	-0.15658155
170	0x3e8b0c82	0.2715798
171	0xbdafe499	-0.085885234
172	0xbdb36e62	-0.08761288
173	0xbe374c73	-0.17900257
174	0x3e924a57	0.28572342
175	0x3e312225	0.17298181
176	0xbdf8c736	-0.121473715
177	0xbce707f1	-0.028202029
178	0x3dab16bc	0.083539456
179	0xbd5955bd	-0.053060282
180	0x3e81853c	0.25296962
181	0xbb0a083e	-0.0021062042
182	0xbe242396	-0.160292
183	0xbda72185	-0.0816069
184	0x3d64a7d5	0.05582412
185	0xbec95ff7	-0.39331028
186	0xbd50f90b	-0.051018756
187	0x3d99d517	0.07511347
188	0x3dfeb6f6	0.12437241
189	0xbd2756f8	-0.040854424
190	0xbe625525	-0.22102793
191	0xbcc472a8	-0.023980454
192	0x3f308fea	0.68969595
193	0xbb0c75eb	-0.002143259
194	0x3d1d04fd	0.038334835
195	0xbf27b9d0	-0.655179
196	0x3d0c75fd	0.03429221
197	0xbeab3ec3	-0.3344632
198	0xbd02eb91	-0.031962935
199	0xbe0db50e	-0.13838598
200	0x3ed2a106	0.41138476
201	0x3e0cb316	0.13740191
202	0x3ccbc380	0.024873495
203	0x3959defc	0.00020777801
204	0xbca6e7b7	-0.020374162
205	0xbd0e4b2d	-0.034739662
206	0x3e531558	0.2061361
207	0xbe239a9d	-0.15976949
208	0x3d7cb5b3	0.06169672
209	0x3b915735	0.0044354447
210	0xbdec6201	-0.1154213
211	0xbda27b15	-0.07933632
212	0x3ee7a282	0.4524117
213	0xbf425886	-0.75916326
214	0x3e9ebd7b	0.31003937
215	0x3dddfc00	0.10839081
216	0xb9d51ce0	-0.0004064804
217	0xbe0f2b73	-0.13981418
218	0x3c42174f	0.0118463775
219	0xbd5e1f3d	-0.05422901
220	0xbce9056f	-0.028444974
221	0xbd5e2d94	-0.054242685
222	0x3e3cc111	0.18433024
223	0xbe63b491	-0.2223685
224	0x3df5e4f2	0.120065585
225	0x3ce44fd0	0.027870089
226	0x3eb546ee	0.35405678
227	0x3c72d164	0.01482043
228	0x3d2f8ae1	0.042857055
229	0xbcdfcce7	-0.027319385
230	0xbf63a33b	-0.88920945
231	0xbea3b3fd	-0.31973258
232	0xbe279f4c	-0.1636936
233	0x3ebdf20b	0.37098727
234	0x3aa44d11	0.0012535175
235	0xbc427a01	-0.011869908
236	0x3e725914	0.23666793
237	0x3e021674	0.12703878
238	0x3ec046b4	0.37553942
239	0x3e317721	0.173306
240	0xbdd77c52	-0.10521759
241	0x3c8fa59c	0.017535023
242	0x3d1cfd6a	0.038327612
243	0xbd00111c	-0.031266317
244	0x3ed3c6cd	0.4136261
245	0x3e7a7076	0.24456963
246	0xbe8667d0	-0.26251078
247	0xbddee27e	-0.10883044
248	0xbea28b51	-0.31746915
249	0xbdaf7eb6	-0.0856909
250	0x3ddca094	0.10772815
251	0xbec2449b	-0.37942967
252	0xbdcb3e20	-0.09923959
253	0x3d81a3fd	0.063301064
254	0x3ec89ded	0.39182988
255	0x3db7d383	0.089758895

fcs1.bias f4 [400]
0	0xbf300448	-0.6875653
1	0xbf4f78d1	-0.81043726
2	0xbe668530	-0.22511744
3	0xbe9d262d	-0.30693188
4	0xbf7af454	-0.98029065
5	0xbf4df694	-0.80454373
6	0xbe046b0e	-0.12931463
7	0xbf0c49a4	-0.54799867
8	0xbf21bd37	-0.63179344
9	0xbf0a6e64	-0.5407469
10	0xbcc93f31	-0.024566265
11	0xbf90f98d	-1.1326157
12	0x3d6bdf8e	0.057586245
13	0xbf1760a7	-0.59131855
14	0xbf1484db	-0.5801522
15	0xbf27a9dd	-0.65493566
16	0xbed5bd2c	-0.4174589
17	0xbe900aff	-0.2813339
18	0xbf8dfd9c	-1.109302
19	0xbf504127	-0.81349415
20	0xbf08f91a	-0.535051
21	0xbf40839d	-0.75200826
22	0xbee11032	-0.4395767
23	0xbead852a	-0.3389066
24	0xbf193c69	-0.59857804
25	0xbe0c7e4f	-0.13720058
26	0xbe75ccc8	-0.24003899
27	0xbe951e55	-0.29124704
28	0x3eaae1f8	0.33375525
29	0xbf38fb79	-0.72258717
30	0xbf06a786	-0.5259937
31	0xbef04098	-0.4692428
32	0xbecf4005	-0.4047853
33	0xbe81c3e5	-0.25344768
34	0xbefd97d4	-0.49529898
35	0xbe840545	-0.2578527
36	0xbf2a2308	-0.66459703
37	0x3e00c53c	0.12575239
38	0xbdea5a6d	-0.114430286
39	0xbe8f30ff	-0.2796707
40	0xbe0a3501	-0.13496782
41	0xbf3d66e2	-0.7398511
42	0xbefe3079	-0.49646357
43	0xbe750091	-0.23925997
44	0xbecdb924	-0.40180314
45	0xbe11c22d	-0.14234228
46	0xbf02470b	-0.5088965
47	0xbea28ced	-0.31748143
48	0xbf3b2bf8	-0.73113966
49	0xbf0b2f76	-0.54369295
50	0xbf257cb7	-0.64643425
51	0xbf1301d6	-0.57424676
52	0xbf06b06f	-0.52612966
53	0xbeceed7b	-0.40415558
54	0xbedce295	-0.43141618
55	0xbf05d751	-0.5228167
56	0xbec00954	-0.37507117
57	0xbeba1eb3	-0.36351547
58	0xbf56b9cc	-0.83877254
59	0xbe107087	-0.14105426
60	0xbecdba13	-0.40181026
61	0xbf060ae4	-0.5236037
62	0xbed140d4	-0.40869772
63	0xbb0bf277	-0.0021354237
64	0xbecd17d5	-0.40057245
65	0xbef45743	-0.47722825
66	0xbf029dd9	-0.51022106
67	0xbf3ca81e	-0.73694026
68	0xbefb369a	-0.49065095
69	0xbf53bc3a	-0.82709086
70	0xbebdb06e	-0.37048668
71	0xbf0b8328	-0.54497004
72	0xbf037b0c	-0.5135963
73	0xbef6d45d	-0.48208895
74	0xbf443a43	-0.766514
75	0xbea1780c	-0.315369
76	0xbec6981a	-0.3878792
77	0xbf0edb3e	-0.5580329
78	0xbf7c9988	-0.9867177
79	0xbef5cc8e	-0.48007625
80	0xbefa8f17	-0.48937294
81	0xbf63170f	-0.8870706
82	0xbeeb22cc	-0.45924985
83	0xbee829d3	-0.4534441
84	0xbf493fc9	-0.78612953
85	0xbeca6f7d	-0.39538184
86	0xbf5216f7	-0.8206629
87	0xbf04262d	-0.5162075
88	0xbf0f6918	-0.56019735
89	0xbe844d16	-0.25840062
90	0xbeec402d	-0.46142712
91	0xbf0e3eff	-0.55564874
92	0xbeebf921	-0.46088508
93	0xbf06ca2a	-0.5265223
94	0xbf3056a8	-0.68882227
95	0xbf6549ab	-0.89565533
96	0xbe56abbd	-0.2096395
97	0xbf4e5085	-0.80591613
98	0xbf24b883	-0.6434404
99	0xbed86d87	-0.42271063
100	0xbf17baa2	-0.59269154
101	0xbe0cf6c8	-0.13766015
102	0xbebc1792	-0.36736733
103	0xbe8845de	-0.26615804
104	0xbeef6a3e	-0.46760744
105	0xbd09af81	-0.03361464
106	0xbed623ea	-0.41824275
107	0xbe82f743	-0.2557927
108	0xbf4950b9	-0.786388
109	0xbe1fbfcd	-0.1560051
110	0xbf1ef606	-0.6209415
111	0xbf08443d	-0.53229123
112	0xbf57d898	-0.8431487
113	0xbf1241f2	-0.57131875
114	0xbef24971	-0.47321656
115	0xbea60b62	-0.3243056
116	0xbeea0fcd	-0.4571518
117	0xbeda9755	-0.42693582
118	0xbeb2b065	-0.34900203
119	0xbf37baeb	-0.7176959
120	0xbeec91ff	-0.46205136
121	0xbedf4b23	-0.43612012
122	0xbf3f2612	-0.74667466
123	0xbf50c5d5	-0.8155187
124	0xbf8511e4	-1.0396085
125	0xbf2151de	-0.63015544
126	0xbea2ff3c	-0.31835353
127	0xbe963b87	-0.2934229
128	0xbeec9eb5	-0.46214834
129	0xbed32025	-0.41235462
130	0xbf5bf8fe	-0.85926807
131	0xbf01d7a1	-0.5071965
132	0xbe393c4a	-0.18089405
133	0xbe932e9e	-0.28746504
134	0xbf28f28f	-0.65995115
135	0xbef1ff8b	-0.47265276
136	0xbf526e32	-0.82199395
137	0xbf3b6a25	-0.7320884
138	0xbe04a12d	-0.12952109
139	0xbf2502a6	-0.64457166
140	0xbf2b7858	-0.66980505
141	0xbf788956	-0.9708456
142	0xbf483c9a	-0.7821747
143	0x3d7a2fb0	0.061080635
144	0xbf13e380	-0.5776901
145	0xbddedb14	-0.108816296
146	0xbf60c5c6	-0.8780178
147	0xbf76ff88	-0.9648366
148	0xbf638c06	-0.88885534
149	0xbef479ed	-0.47749272
150	0xbf773376	-0.965629
151	0x3d97bf9c	0.074095935
152	0xbeeea293	-0.4660841
153	0xbf1f79e7	-0.62295383
154	0xbf4ad9a6	-0.79238355
155	0xbf883ae0	-1.0642967
156	0xbedde2c7	-0.4333708
157	0xbf20ac10	-0.62762547
158	0xbe3289de	-0.17435405
159	0xbf02d4ca	-0.5110594
160	0xbf0f1870	-0.55896664
161	0xbe522004	-0.20520025
162	0xbec4adaa	-0.38413745
163	0x3d5b2e56	0.053510986
164	0xbe467a70	-0.19382644
165	0xbf17e2ad	-0.59330255
166	0xbf15ac0d	-0.58465654
167	0x3befd2a1	0.00731881
168	0xbec7ba50	-0.39009333
169	0xbf15906c	-0.58423495
170	0xbeba3d3c	-0.36374843
171	0xbec22156	-0.37916058
172	0xbf78668d	-0.9703148
173	0xbf0b1a09	-0.543366
174	0xbf11f241	-0.57010275
175	0xbf1baa37	-0.608066
176	0xbf53f839	-0.8280063
177	0xbf6d07e3	-0.9259016
178	0xbf41b629	-0.7566858
179	0xbe31158e	-0.17293379
180	0xbe3c61a8	-0.18396628
181	0xbf23b676	-0.6395029
182	0xbf2527d1	-0.6451388
183	0xbf3be587	-0.73397106
184	0xbeccb612	-0.3998266
185	0xbf291155	-0.6604207
186	0xbecdb4c4	-0.40176976
187	0xbf7cb423	-0.98712367
188	0x3e664370	0.22486663
189	0xbedb2608	-0.42802453
190	0xbeafdbf6	-0.34347504
191	0xbf53d6ce	-0.8274964
192	0xbf459838	-0.7718539
193	0xbeb6b61d	-0.35685816
194	0x3c202479	0.009774321
195	0xbe5cfe5e	-0.21581408
196	0xbf665db2	-0.8998672
197	0xbf309f78	-0.6899333
198	0xbee65cb9	-0.44992617
199	0xbf20d9b4	-0.6283219
200	0xbf083570	-0.5320654
201	0xbf1a4836	-0.60266435
202	0xbde47ef3	-0.11157026
203	0xbf181b00	-0.594162
204	0xbf13a1d2	-0.57668793
205	0xbeae1cf9	-0.3400648
206	0xbf0ab849	-0.54187447
207	0xbf4630ca	-0.77418196
208	0xbf069a01	-0.5257874
209	0xbf1238a5	-0.5711768
210	0xbe40cabe	-0.1882734
211	0xbecf5b4b	-0.40499339
212	0xbf0f1af3	-0.55900496
213	0xbeb69c1a	-0.3566597
214	0xbf0e3ffd	-0.5556639
215	0xbed52ea3	-0.41637143
216	0xbf01344e	-0.50470436
217	0xbeb772a1	-0.35829642
218	0xbed48c3a	-0.41513234
219	0xbeac9c92	-0.33713204
220	0xbeaa5965	-0.33271328
221	0xbe5254fc	-0.20540231
222	0xbf7610b8	-0.9611926
223	0xbee9daaf	-0.45674655
224	0xbf32dc20	-0.69867134
225	0xbf26936d	-0.65068704
226	0xbf2edfe4	-0.6831038
227	0xbf15a9e5	-0.58462363
228	0xbf49da20	-0.7884846
229	0xbf3adaa3	-0.72989863
230	0xbeea711f	-0.4578943
231	0xbda9d1ab	-0.08291944
232	0xbeb209fd	-0.34773245
233	0xbf2f745c	-0.68536925
234	0xbe959a9f	-0.2921953
235	0xbe8dc508	-0.27689385
236	0xbeeb5024	-0.4595958
237	0xbf260430	-0.6485014
238	0xbf960070	-1.1718884
239	0xbeca9c65	-0.39572445
240	0xbf38c100	-0.72169495
241	0xbf127b91	-0.572198
242	0xbf0d5584	-0.5520861
243	0xbeea5dfd	-0.45774832
244	0xbf1d87a6	-0.6153511
245	0xbdce8b9e	-0.100852236
246	0xbeb7acda	-0.35874063
247	0xbeec9e90	-0.46214724
248	0xbf0b9d57	-0.54536957
249	0xbf0a3fdb	-0.54003686
250	0xbedd7f98	-0.4326141
251	0xbe8caa2f	-0.2747359
252	0xbe95b4ca	-0.29239494
253	0xbe6e09d3	-0.23245935
254	0xbd78d826	-0.06075301
255	0xbf1f0ed7	-0.6213202

fc2.weight f4 [300, 404]
0	0x3d73a2ec	0.059481546
1	0xbd91d6ea	-0.0712107
2	0xbd78394a	-0.06060151
3	0x3be54a2c	0.0069973674
4	0xbdd4d289	-0.10391719
5	0x3c8744d1	0.016512306
6	0xbd4693cf	-0.048480805
7	0xba4e10b3	-0.0007860765
8	0x3cbab9d5	0.02279369
9	0xbc22e2d7	-0.009941778
10	0x3990c5ee	0.0002761329
11	0xbd4b7a43	-0.049677145
12	0x3cb5a63a	0.02217399
13	0x3ca63944	0.020290978
14	0xbd671889	-0.056419883
15	0xbdfa2b75	-0.1221532
16	0x3d401ca0	0.0469023
17	0x3c0deeb2	0.008662866
18	0xba6474a4	-0.00087148906
19	0x3c2a1d96	0.01038303
20	0x3d212510	0.039341986
21	0xbc038f1d	-0.008029726
22	0x3c18b638	0.009320788
23	0xbd84da0a	-0.064869
24	0x3d20647a	0.039158322
25	0xbe595615	-0.21224244
26	0x3d30fdfe	0.043210976
27	0xbdaaafba	-0.083342984
28	0xbd59de30	-0.05319041
29	0xbc7ef1ad	-0.01556055
30	0x3d0ad4d1	0.033894364
31	0xbcb7bc3f	-0.02242863
32	0xbd25f0e5	-0.040512938
33	0x3ca40c1b	0.020025304
34	0x3cc7d047	0.024391307
35	0xbd262cd8	-0.04057011
36	0xbc32c6e8	-0.010911681
37	0xbd1d25e3	-0.03836621
38	0xbd955c45	-0.0729299
39	0xbdade13a	-0.08490224
40	0x3b816147	0.003948364
41	0xbd85ecb4	-0.06539288
42	0xbd516a57	-0.051126804
43	0x3c5517cf	0.013006165
44	0xbd5d0aa7	-0.053965237
45	0x3d18b726	0.03728404
46	0xbcb5cb12	-0.022191558
47	0x3d616cd1	0.055035416
48	0x3ce4c2a1	0.027924838
49	0xbce9830a	-0.028504867
50	0xbd4af595	-0.04955061
51	0xbdb201fa	-0.08691783
52	0xbd01ab2b	-0.03165738
53	0xbcae1016	-0.021247905
54	0x3c0a23bf	0.008431374
55	0xbd9140d5	-0.07092444
56	0xbc4d41d2	-0.0125279
57	0xbcf233e6	-0.029565763
58	0xbd6bce10	-0.057569563
59	0xbc783cc0	-0.015151203
60	0xbe2756e0	-0.16341734
61	0xbd2f3d07	-0.04278281
62	0xbcf2b54a	-0.029627461
63	0xbe1ecb68	-0.15507281
64	0x3d09272f	0.033484634
65	0x3d2d396e	0.042291097
66	0xbd75b684	-0.059988514
67	0x3d294d2f	0.041333374
68	0x3a018f1d	0.0004942285
69	0xbb96475e	-0.0045861444
70	0x3b9823f8	0.0046429597
71	0x3d025092	0.03181512
72	0x3cafe9c5	0.021473775
73	0xbd9bcf18	-0.076078594
74	0xbcbe65ba	-0.023241866
75	0xbcaf1311	-0.021371396
76	0xbd848442	-0.06470539
77	0xbd480235	-0.04883023
78	0x3ce3f83a	0.027828325
79	0xbd8b2c3d	-0.06795547
80	0xbd88da30	-0.06682241
81	0x3d263a51	0.04058296
82	0xbe022858	-0.12710702
83	0x3c627282	0.013821246
84	0xbd44d434	-0.048053935
85	0x3b890a90	0.0041821674
86	0x3d381ca3	0.044949185
87	0xbd5c572b	-0.053794067
88	0x3c701c68	0.01465521
89	0xbe11a2ed	-0.14222308
90	0x3d29d3dc	0.04146181
91	0xbccd1d40	-0.025038362
92	0xbce27dfa	-0.02764796
93	0xbd87b6d4	-0.066266686
94	0xbd3ec73a	-0.046576716
95	0x3b8448a2	0.004036979
96	0xbdae78fa	-0.08519168
97	0xbd682302	-0.05667401
98	0xbd19a000	-0.037506104
99	0xbc35a422	-0.011086496
100	0xbc5680eb	-0.01309226
101	0xbd1e83f0	-0.038700044
102	0xbc3c4f8b	-0.011493574
103	0xbb878043	-0.004135163
104	0xbdb8eccd	-0.09029541
105	0xbd68289a	-0.056679346
106	0x3c4ffe73	0.012694943
107	0xbd9e8008	-0.07739264
108	0xbd26458c	-0.04059367
109	0x3d57924d	0.052629758
110	0x3d39998f	0.04531246
111	0xbcf3bb5e	-0.02975243
112	0xbbb53c07	-0.0055308375
113	0xbe3a7067	-0.1820694
114	0xbd8cb1c7	-0.06869846
115	0xbc74b9bd	-0.014936862
116	0xbc4fb05a	-0.012676323
117	0xbd6fe484	-0.05856754
118	0xbd6b76d5	-0.057486374
119	0xbdb9b2de	-0.09067319
120	0xbd373d26	-0.04473605
121	0xbddaf96b	-0.10692104
122	0x3d219989	0.039453063
123	0x3b5d2c49	0.003374832
124	0xbd69603f	-0.056976553
125	0xb9878fbe	-0.00025856303
126	0xbd41f217	-0.047350015
127	0x3d0d016b	0.03442518
128	0x3b1b004c	0.00236513
129	0xbd152f5f	-0.03642213
130	0xbc1db769	-0.009626248
131	0x3cab81b1	0.020935865
132	0x3c33e879	0.010980719
133	0xbcd7ffe8	-0.026367143
134	0x3cbb6289	0.022874134
135	0xbd2c0d72	-0.04200501
136	0xbc2a510f	-0.010395302
137	0x3cae9a26	0.021313738
138	0xbdd079c6	-0.101794764
139	0xbc2eef02	-0.010677101
140	0xbd315833	-0.043297004
141	0x3c4bab02	0.012430908
142	0x3b0cd241	0.0021487626
143	0xbd283aec	-0.041071817
144	0x3c18c147	0.009323425
145	0xbe1553ed	-0.14582796
146	0x3c5c2f75	0.013439049
147	0xbc25594e	-0.010092093
148	0x3c3bd439	0.011464172
149	0xbd974439	-0.07386059
150	0xbd2a5ea2	-0.041594155
151	0x3d25fea1	0.040526036
152	0xbd233b04	-0.039851204
153	0x3c4da955	0.012552579
154	0x3cf29960	0.02961415
155	0xbd7d864c	-0.061895654
156	0xbcdc1816	-0.026866954
157	0x3c92aa0a	0.017903347
158	0xbc8fed22	-0.017569128
159	0xbba92a56	-0.0051625175
160	0x3cbc8f9c	0.023017697
161	0x3d4d906f	0.05018657
162	0x3c9fb6ca	0.01949634
163	0xbca6d307	-0.020364298
164	0xbd370da8	-0.044690758
165	0x3d40e26a	0.047090925
166	0x3cb1a616	0.021685641
167	0xbda1cb27	-0.07900076
168	0xbb877138	-0.00413337
169	0xbcb768dd	-0.02238887
170	0x3d09c3f0	0.033634126
171	0xbdd23ad4	-0.10265127
172	0x38dcd168	0.000105294224
173	0x3aa703f2	0.0012742265
174	0xbb2264e5	-0.0024779376
175	0xbd3b4a4d	-0.045725156
176	0x3ce1bdc3	0.027556306
177	0x3d1db18a	0.038499393
178	0xbd642f41	-0.055709127
179	0xbc65e1ec	-0.014030915
180	0xbbd63431	-0.0065369834
181	0x3d2a02ca	0.041506566
182	0x3d3d2c32	0.046184726
183	0xbce054cb	-0.027384182
184	0x3d19e925	0.03757586
185	0xbcb36eb0	-0.021903366
186	0xbcbe4250	-0.02322498
187	0xbd76cf2d	-0.060256172
188	0x3c197b31	0.00936775
189	0x3d42fae3	0.047602545
190	0xbdf94dda	-0.12173052
191	0x3babdd60	0.005244896
192	0xbd417be1	-0.04723728
193	0xbd796635	-0.060888488
194	0x3a9699cb	0.0011489926
195	0x3ce68162	0.028137866
196	0xbc9eea75	-0.019398907
197	0xbba8cf7c	-0.005151687
198	0xbd0c3109	-0.03422645
199	0x3d069474	0.03285642
200	0x3dd826f8	0.10554308
201	0x3bd037ab	0.0063542924
202	0xbd47f751	-0.048819844
203	0x3d34c9c1	0.04413772
204	0xbd9b2596	-0.07575528
205	0x3cb807c8	0.022464648
206	0xbd06fbb3	-0.032954883
207	0xbc0b43da	-0.008500064
208	0xbd274e26	-0.040846013
209	0x3ce87d6d	0.02838012
210	0x3da5f25a	0.081028655
211	0xbd033821	-0.03203595
212	0x3d17af30	0.037032306
213	0xbe3eb829	-0.18624939
214	0x3b7661eb	0.0037594985
215	0xbd89da12	-0.06731047
216	0xbc109357	-0.008824191
217	0xbc6b0359	-0.01434406
218	0xbc39a695	-0.01133122
219	0xbdca3af9	-0.098745294
220	0xbdb166be	-0.08662175
221	0xbda91001	-0.08255006
222	0xbd83a0f0	-0.06427181
223	0x3c115b0b	0.008871804
224	0x3d44fa7b	0.04809044
225	0xbc914753	-0.017734205
226	0xbc93dfc9	-0.018051045
227	0xbd6ada5d	-0.057337154
228	0xbd73c326	-0.05951228
229	0x3d7c0036	0.06152364
230	0xbd21277e	-0.039344303
231	0xbd206b93	-0.03916509
232	0xbdbbbc8c	-0.09166822
233	0xbe0e218e	-0.13879988
234	0xbd52055d	-0.051274646
235	0xbc3589a5	-0.01108018
236	0xbce9161f	-0.028452931
237	0xbdbb11ce	-0.09134255
238	0xbcafde52	-0.021468315
239	0xbcd089ed	-0.025456393
240	0xbcc0816e	-0.023499217
241	0xbd7099df	-0.058740493
242	0x3c89e213	0.016831433
243	0xbd604306	-0.05475142
244	0xbd90159e	-0.07035373
245	0xbd400438	-0.046879023
246	0xbd83c4fb	-0.064340554
247	0x3cd920f1	0.026504965
248	0xbd735058	-0.059402794
249	0xbcd559a6	-0.026043724
250	0x3cf71e83	0.030165916
251	0xbda4261c	-0.08015081
252	0xbd2997a9	-0.0414044
253	0xbd99777d	-0.07493494
254	0xbb1a708b	-0.0023565616
255	0xbd628e4d	-0.05531149

fc2.bias f4 [300]
0	0xbd4e6189	-0.050385986
1	0x3f2573f8	0.6463008
2	0xbe01ac9e	-0.12663504
3	0xbdd388f7	-0.10328858
4	0xbd387d79	-0.045041535
5	0xbcb06b34	-0.021535493
6	0xbd74928b	-0.059710067
7	0xbdada0a0	-0.084779024
8	0xbd7d673a	-0.061866023
9	0xbdb90af2	-0.09035291
10	0x3e5b563d	0.21419616
11	0xbc520722	-0.012819083
12	0xbd79d1b0	-0.06099099
13	0x3bd839ad	0.0065986724
14	0xbdda2565	-0.10651664
15	0xbd48a533	-0.04898567
16	0x3e99664b	0.29960856
17	0xbdbaef2a	-0.09127648
18	0xbdcbe41b	-0.09955617
19	0xbd2a52d8	-0.041582912
20	0xbbe47f6e	-0.0069731986
21	0xbdbad146	-0.09121947
22	0xbda5f766	-0.08103828
23	0xbdb0e97a	-0.08638282
24	0xbd76f081	-0.060287956
25	0x3f0c43c4	0.547909
26	0xbda4b6f3	-0.08042707
27	0xbc424ac2	-0.011858644
28	0xbcd221df	-0.025650917
29	0xbcb35b66	-0.021894168
30	0xbd4823ab	-0.04886214
31	0xbd82426c	-0.06360325
32	0xbdf4bd04	-0.11950114
33	0xbd9f147d	-0.0776758
34	0x3f4afbd5	0.79290515
35	0xbddea0de	-0.10870527
36	0xbd0b4cd2	-0.03400881
37	0xbd9dc040	-0.077026844
38	0xbdd348c9	-0.10316617
39	0xbd6961b3	-0.05697794
40	0xbdde09f4	-0.10841742
41	0xbdbed1df	-0.093173735
42	0xbcb232a0	-0.021752656
43	0xbd349b4e	-0.044093423
44	0xbd962405	-0.07331089
45	0xbd93e1a6	-0.072207734
46	0xbdd06087	-0.10174661
47	0xbc9cc253	-0.01913563
48	0xbcc2818f	-0.023743419
49	0xbd8b1d79	-0.06792731
50	0xbce75ef3	-0.028243518
51	0xbda3b150	-0.07992804
52	0x3e16d433	0.14729385
53	0x3ac11bfc	0.0014733071
54	0xbd25a6f0	-0.040442407
55	0x3cd9b331	0.026574703
56	0xbd0d16a0	-0.034445405
57	0xbd857306	-0.065160796
58	0xbd85393d	-0.06505058
59	0xbc237cc4	-0.009978477
60	0xbd29eb88	-0.041484386
61	0xbe1e0c12	-0.15434292
62	0xbdaa78ea	-0.08323844
63	0xbddcce2a	-0.1078151
64	0xbe31eae0	-0.17374754
65	0xbc803c1c	-0.015653662
66	0x3c662e1a	0.014049077
67	0xbe084699	-0.13308181
68	0xbe95757c	-0.29191196
69	0xbd79bb16	-0.060969435
70	0xbdb52864	-0.088455945
71	0xbdbf37e5	-0.09336833
72	0xbdb843a2	-0.08997275
73	0xbbe87ca8	-0.0070949383
74	0xbd93bdf1	-0.07213963
75	0xbd8f1191	-0.069857724
76	0x3eb317b3	0.3497902
77	0xbd9366fc	-0.07197377
78	0xbd4cf4fe	-0.05003833
79	0x3f6a3e7a	0.9150158
80	0x3ce28571	0.02765152
81	0x3f0f5bb7	0.5599932
82	0xbcdf7648	-0.02727808
83	0xbaa93ca7	-0.0012911753
84	0xbdba17c6	-0.09086566
85	0xbda023d4	-0.07819334
86	0xbdef2fc3	-0.11679032
87	0x3bf9340e	0.0076050824
88	0xbd7bd0c1	-0.06147838
89	0xbdcb895c	-0.099383086
90	0xbdaa7ae2	-0.08324219
91	0xbd37b817	-0.044853296
92	0xbc96f177	-0.018425686
93	0xbdc456a9	-0.095868416
94	0xbd9f057c	-0.07764718
95	0xbd95c3a1	-0.07312704
96	0xbc4761f2	-0.012169348
97	0xbd062aa7	-0.03275552
98	0xbdd60a95	-0.10451237
99	0x3ea9f04b	0.3319114
100	0xbda32d34	-0.07967606
101	0x3c28f7b1	0.0103129605
102	0xbd1688d3	-0.03675158
103	0xbd381d25	-0.04494967
104	0xbc4efec7	-0.012633986
105	0xbe82b1a8	-0.25526166
106	0xbd18f8d1	-0.037346665
107	0xbdd113e8	-0.10208875
108	0xbd47f3c0	-0.048816442
109	0xbce57ede	-0.028014597
110	0xbc1ceb5d	-0.009577599
111	0x3ec5db09	0.38643673
112	0xbde8393f	-0.11339044
113	0x3ea9387f	0.33050916
114	0xbd2bfb2f	-0.041987594
115	0xbd5a6a30	-0.053323925
116	0xbdf52ff9	-0.11972041
117	0xbd6e5086	-0.058182262
118	0xbc581697	-0.01318898
119	0xbccbd4e2	-0.024881784
120	0xbe8dec1e	-0.27719206
121	0xbdbc8b23	-0.09206226
122	0xbc4f6de2	-0.012660475
123	0xbd1aeb8f	-0.037822302
124	0xbd9896bf	-0.074506275
125	0x3ef6b98a	0.4818843
126	0xbd7fa51f	-0.06241333
127	0xbcc700d6	-0.02429239
128	0xbd8debf4	-0.0692977
129	0xbdb0088c	-0.0859538
130	0xbdc456ca	-0.09586866
131	0xbd520a05	-0.051279087
132	0xbcf13d27	-0.029448105
133	0xbe023d9d	-0.12718816
134	0xbdcea1f2	-0.10089482
135	0xbdb6c784	-0.08924773
136	0xbda0038c	-0.078131765
137	0xbda89488	-0.08231455
138	0xbd84d94f	-0.06486761
139	0xbd26d816	-0.04073342
140	0xbd75aa48	-0.059976846
141	0xbbf798a3	-0.0075560375
142	0xbd9cb5fc	-0.07651898
143	0xbcd827a3	-0.026386088
144	0xbca1e785	-0.019763717
145	0xbd4dc194	-0.05023344
146	0xbca12f95	-0.01967601
147	0xbd155087	-0.03645375
148	0xbdfe875d	-0.12428162
149	0xbd0cc895	-0.034370977
150	0x3e13c19e	0.14429328
151	0xbd0893f5	-0.033344228
152	0x3b186cce	0.0023258212
153	0xbd8aa4e5	-0.067697324
154	0xbd0e64a0	-0.034763932
155	0xbdc477a4	-0.09593132
156	0xbdece438	-0.11566967
157	0xbd30aade	-0.0431317
158	0xbdb7a03c	-0.08966109
159	0xbccea3d2	-0.0252246
160	0xbdb9a85a	-0.09065314
161	0xbdbf73c0	-0.093482494
162	0xbd802f1a	-0.06258984
163	0xbdfaffaa	-0.12255795
164	0xbd916640	-0.07099581
165	0x3f2a6e43	0.66574496
166	0xbd6acc95	-0.05732401
167	0xbd838a73	-0.064228915
168	0xbdc63ac9	-0.09679181
169	0xbd036c8f	-0.03208595
170	0xbc5916c3	-0.013250056
171	0xbcf30ca5	-0.029669115
172	0xbbfa07d1	-0.0076303263
173	0xbdb1f374	-0.08689013
174	0xbdfd8f54	-0.12380853
175	0xbca4db84	-0.020124204
176	0xbd9ea67e	-0.077465996
177	0xbbdd2218	-0.006748449
178	0xbc81dd10	-0.015852481
179	0xbd29b7b1	-0.041434947
180	0xbe68706b	-0.22699134
181	0xbd704dd5	-0.058667976
182	0xbd9218c3	-0.07133629
183	0xbd827733	-0.06370392
184	0xbe0e806e	-0.1391618
185	0xbcd2ddb1	-0.025740476
186	0xbd3467ef	-0.04404443
187	0xbc2db59c	-0.010602381
188	0xbd3eaddf	-0.046552535
189	0xbd207077	-0.039169755
190	0xbd0ea5c5	-0.03482606
191	0xbdb07e92	-0.08617891
192	0xbcc0391f	-0.023464737
193	0xbc3d0647	-0.011537141
194	0xbd75ffc0	-0.060058355
195	0xbd87a029	-0.06622345
196	0xbd631f0c	-0.05544953
197	0xbd3e6217	-0.046480265
198	0xbdbecd08	-0.0931645
199	0xbd58e9b2	-0.052957244
200	0xbd45d01c	-0.04829417
201	0xbcbeb79a	-0.023280907
202	0xbceffcfa	-0.029295433
203	0xbd105546	-0.035237573
204	0xbd8f5a32	-0.06999625
205	0xbd3a1f83	-0.04544021
206	0xbd4fc7d7	-0.05072769
207	0xbd191069	-0.037369166
208	0xbd85bab3	-0.06529751
209	0xbd7fe8f2	-0.062478013
210	0xbdcd1393	-0.10013499
211	0x3b853d95	0.004066179
212	0xbd85f5ed	-0.06541047
213	0xbcff1458	-0.03113763
214	0x3e9530d9	0.2913883
215	0xbdca2abb	-0.098714314
216	0xbd98ebfe	-0.07466887
217	0xbd8e1c95	-0.06939045
218	0xbe6fca3f	-0.23416995
219	0xbd035560	-0.03206384
220	0xbe0d54f2	-0.13801935
221	0xbda937f5	-0.08262626
222	0xbd221dae	-0.039579086
223	0xbdb329d3	-0.08748212
224	0x3b92e9c3	0.004483433
225	0xbd712a35	-0.058878142
226	0xbd416067	-0.047211077
227	0x3edeea61	0.43538192
228	0xbd33701e	-0.043808095
229	0x3baa7270	0.0052016303
230	0x3e24545b	0.16047804
231	0xbb342714	-0.0027489113
232	0x3aaab0e1	0.0013022685
233	0x3e6ae2d1	0.22938086
234	0x3bb1c9ca	0.0054256665
235	0xbd584367	-0.052798655
236	0xbdc67333	-0.09689941
237	0xbd30d71a	-0.043173887
238	0xbd9ca40e	-0.076484784
239	0xbd98a592	-0.07453455
240	0xbdccc7cc	-0.09999046
241	0xbd430d2f	-0.047619995
242	0xbcca5c87	-0.024702324
243	0xbd2cbbe9	-0.042171393
244	0xbdd66d0d	-0.104700185
245	0xbd4d318c	-0.05009608
246	0xbdadd2ba	-0.084874585
247	0xbbb1cd07	-0.0054260525
248	0xbce69826	-0.028148722
249	0xbc83ec42	-0.016103867
250	0xbe466083	-0.19372754
251	0xbd7c06dc	-0.06152998
252	0x3bb6b8d2	0.0055762315
253	0xbd688056	-0.056763016
254	0xbdce654a	-0.10077913
255	0xbd29cf49	-0.04145745

fc3.weight f4 [1, 300]
0	0x3caa27fe	0.020771023
1	0x3d2d460d	0.042303134
2	0x3c4343f9	0.011918061
3	0x3bd5cf68	0.006524969
4	0xbc9991ad	-0.018746221
5	0x3ced072b	0.028934082
6	0xbb2a6fa2	-0.002600648
7	0xbcb75e36	-0.02238379
8	0x3c12f044	0.008968417
9	0xbc5a6138	-0.013328843
10	0x3d040bca	0.032237805
11	0x3c5a3fa0	0.013320833
12	0x3cc5135e	0.024057087
13	0xbbcc4732	-0.006234073
14	0x3a9ba761	0.0011875444
15	0x3cc255e0	0.023722589
16	0x3caee8ed	0.021351302
17	0xbc9765f4	-0.018481232
18	0x3be4bed7	0.0069807577
19	0xbccdd344	-0.025125153
20	0x3cc5c0bb	0.024139753
21	0xbc6baf48	-0.014385052
22	0xbc88dd81	-0.016707184
23	0xba3affe6	-0.0007133469
24	0xbab185c6	-0.0013543896
25	0x3c8f65a8	0.017504528
26	0xbb00dd01	-0.0019662979
27	0x3bc31f0f	0.00595463
28	0xbcb9cd9d	-0.022681052
29	0xbba8775e	-0.005141183
30	0xbb0e826e	-0.0021745223
31	0xbcff992a	-0.031200964
32	0xbc02584a	-0.00795562
33	0x3c855cd2	0.016279612
34	0x3cbd2b8e	0.023092058
35	0xbbf7d639	-0.007563379
36	0xbc344458	-0.011002623
37	0xbb173ab3	-0.002307576
38	0x3ad36d0e	0.0016130523
39	0x3ceba804	0.02876664
40	0xbc2526a9	-0.010080018
41	0xbac084c4	-0.0014688005
42	0x3bc57cfe	0.006026863
43	0xbcadff43	-0.021239882
44	0x3c8a2440	0.016862988
45	0x3d2cba6d	0.042169977
46	0xbca3a223	-0.019974774
47	0xbd013ed2	-0.03155405
48	0xbd09e173	-0.03366227
49	0x3b6f1025	0.0036478129
50	0x3c0b9e00	0.008521557
51	0x3b8c7110	0.004285939
52	0x3cd89132	0.026436422
53	0x3b0a6134	0.0021115066
54	0x3dd17178	0.102267206
55	0xbce16b84	-0.027517088
56	0xbcf995a9	-0.030466871
57	0x3c465a5a	0.012106502
58	0x3ca2b228	0.019860342
59	0x3d091183	0.033463966
60	0xbc88baf0	-0.016690701
61	0xbcee447a	-0.029085387
62	0x3c6550f1	0.013996349
63	0xbdd8aa8d	-0.10579405
64	0xbd3f6462	-0.046726592
65	0xba8f06ef	-0.00109121
66	0x3d0f025c	0.03491436
67	0xbd1c0365	-0.038089175
68	0xbd01713a	-0.031602122
69	0x3ce5762a	0.028010447
70	0x3cca0095	0.02465848
71	0xbd3657aa	-0.044517197
72	0x3d081690	0.033224642
73	0xbcd52c94	-0.026022233
74	0xbb8b7d79	-0.004256901
75	0xbc986bba	-0.018606056
76	0x3cb27619	0.021784829
77	0x3d00fcb7	0.031491008
78	0xbc1550eb	-0.009113531
79	0x3d266cfe	0.040631287
80	0xbbc3aecf	-0.0059717665
81	0x3d3a2043	0.045440923
82	0xbc14687f	-0.009058117
83	0x3ceb144b	0.0286962
84	0x3cb328cf	0.021870045
85	0xbc8c9844	-0.01716245
86	0xbb6425b7	-0.003481252
87	0xbc959bea	-0.018262822
88	0xbbcab2de	-0.0061858734
89	0x3a6bda89	0.0008997103
90	0xbc025c92	-0.007956641
91	0xbcf44a4a	-0.02982058
92	0x3b46a03d	0.0030307912
93	0xbb3da8a0	-0.002893962
94	0x3c454e33	0.01204257
95	0xbcf7589a	-0.030193616
96	0x3c75f108	0.01501108
97	0x3cad20b1	0.021133753
98	0x3bd07d59	0.006362599
99	0x3ca19c74	0.019727923
100	0xba21a9d9	-0.0006166972
101	0x3c9e7e48	0.019347325
102	0xbc62944a	-0.0138293
103	0xbc3b3870	-0.01142703
104	0x3ba30f37	0.004976179
105	0xbcf6ac5b	-0.030111482
106	0xbcbed9bb	-0.023297181
107	0x3c3b4fe6	0.0114326235
108	0x3cc23f74	0.023711897
109	0x3cfadff0	0.03062436
110	0x395aa32f	0.0002085089
111	0x3d1c134d	0.038104344
112	0xbce2469b	-0.027621558
113	0x3cad9278	0.021188006
114	0x3c5704a5	0.013123666
115	0xbcf6b942	-0.030117635
116	0xbc33ca9e	-0.010973601
117	0x3c94c880	0.018162012
118	0x3b679f66	0.0035342812
119	0xbce8a65b	-0.028399637
120	0xbd049016	-0.032363974
121	0x3cd94088	0.026520029
122	0xbcd52ead	-0.026023233
123	0xbc5da549	-0.013528177
124	0xbcbe273c	-0.023212068
125	0x3cff03b6	0.0311297
126	0xbcf7ae1a	-0.030234385
127	0x3b321597	0.0027173513
128	0x3ca914ce	0.020639803
129	0xbbd0c0c0	-0.006370634
130	0xbc01b5eb	-0.007916908
131	0xbbda3c3d	-0.006660013
132	0x3c291da9	0.010322013
133	0x3baad384	0.005213203
134	0x3ce909c0	0.028447032
135	0xbc975b3f	-0.018476127
136	0x3c1b73ce	0.009488059
137	0xbb24cae2	-0.0025145342
138	0x3d292bf9	0.0413017
139	0x3c93d32a	0.018045027
140	0xbcf7c827	-0.030246807
141	0x3cd06ddd	0.025443012
142	0xbd019d8e	-0.031644396
143	0x3c91e043	0.017807132
144	0x3cf1d65f	0.029521165
145	0x3a72c763	0.00092612783
146	0x3b996a21	0.004681841
147	0xbcbc69a7	-0.022999598
148	0xbbbffb66	-0.0058588265
149	0xbceb4d33	-0.028723335
150	0x3cd8340c	0.026392005
151	0xbd5c97aa	-0.053855576
152	0x3c7b60ec	0.015342932
153	0xbcffc48a	-0.031221647
154	0x3beea568	0.0072829016
155	0xbcfd69eb	-0.030934295
156	0xbce08504	-0.027407177
157	0x3be4bedb	0.0069807596
158	0xbcfcc82c	-0.030857168
159	0xbb0ef100	-0.0021811128
160	0x3c45e09a	0.012077475
161	0xb89b957d	-7.41882e-05
162	0xbd00a36a	-0.031405844
163	0x3cdc62ca	0.026902575
164	0x3c327c60	0.010893911
165	0x3d351c10	0.044216216
166	0xbcee4e51	-0.029090079
167	0xbcc75177	-0.024330838
168	0x3ccafa04	0.02477742
169	0xbafffb52	-0.0019529855
170	0x3c5d5697	0.013509414
171	0xbac37635	-0.0014912548
172	0xbd6dbeae	-0.058043174
173	0x3bcdad6c	0.006276777
174	0xbbfce8e0	-0.0077181906
175	0xbaac8d4c	-0.0013164668
176	0xbce22d45	-0.027609477
177	0xbcfb5b6f	-0.030683247
178	0x3cfc26c6	0.030780207
179	0xbcf7b33a	-0.03023683
180	0xbd17b5a5	-0.037038464
181	0xbb99545c	-0.004679246
182	0x3a86330f	0.0010238605
183	0x3c0493b7	0.008091859
184	0xbc71232a	-0.014717856
185	0x3bba682f	0.005688689
186	0xbbea25b4	-0.007145608
187	0x3c793996	0.015211483
188	0x3cc26083	0.023727661
189	0xbca3ecf7	-0.020010455
190	0xbbcb9035	-0.006212259
191	0xbcce2673	-0.025164818
192	0x3c8fcba7	0.017553164
193	0xbdc2d378	-0.09512991
194	0xbc36e602	-0.011163237
195	0xbca48a42	-0.020085458
196	0xbd004a01	-0.031320576
197	0xbca051a3	-0.019570177
198	0xbcd78700	-0.02630949
199	0xbb2a474b	-0.0025982435
200	0x3cbc6a69	0.022999959
201	0x3c86449e	0.016390141
202	0x3cb296ef	0.021800486
203	0xbc6c8633	-0.014436292
204	0xbcf53fe0	-0.029937685
205	0xbc48dc66	-0.012259578
206	0x3c4ae594	0.012383837
207	0xbc161695	-0.009160657
208	0xbd007d35	-0.031369407
209	0x3c7da787	0.015481836
210	0xbcc90bf9	-0.024541842
211	0x3c36d5f2	0.011159407
212	0xbce5281a	-0.027973223
213	0xbc57261b	-0.013131644
214	0x3c921296	0.017831128
215	0x3c8b5522	0.017008368
216	0x3be5515d	0.0069982246
217	0xbc8c187c	-0.017101519
218	0xbc860197	-0.01635818
219	0x3cfe648b	0.031053802
220	0x3c7659a6	0.015036022
221	0x3ccad2f1	0.024758788
222	0x3a0ef8ab	0.00054539245
223	0x3a791d28	0.0009502941
224	0x3c12d824	0.008962665
225	0x3cb297ba	0.021800864
226	0x3caa2e0d	0.020773912
227	0x3d19207c	0.037384495
228	0x3cc0abb9	0.023519384
229	0x3afdc4f0	0.001936106
230	0x3cb1b44a	0.021692414
231	0x39f7ec08	0.00047287368
232	0x3ce0554c	0.027384423
233	0x3d00b9f6	0.031427346
234	0xbc5b91c2	-0.013401451
235	0xbcee13ff	-0.02906227
236	0x3bae4455	0.0053182044
237	0xbb3df16e	-0.0028983015
238	0xbc221ad4	-0.009894092
239	0x3d090d2e	0.033459835
240	0xbcad4b5a	-0.021154094
241	0xbcec9d32	-0.02888355
242	0x3cc23bef	0.02371022
243	0xbd84034e	-0.06445943
244	0x38a64589	7.928449e-05
245	0xbb8e6825	-0.004345911
246	0x3d0da281	0.034578804
247	0xbc27cef0	-0.010242209
248	0xbcc0c6dc	-0.023532324
249	0x3c2bb60e	0.010480417
250	0x3c4a6c3f	0.012354909
251	0xbc1c6417	-0.009545348
252	0xbb8be2c8	-0.004268978
253	0xbc901032	-0.017585848
254	0x3c7ba7e6	0.015359854
255	0x3b6aa48f	0.003580365
