ckpt/checkpoint_actor.pth (torch_old, 541413 bytes, 6 tensors)

fc1.weight f4 [400, 33]
0	0xbc13abd4	-0.009013135
1	0x3d6c6376	0.05771204
2	0xbda045da	-0.07825823
3	0x3c5df418	0.013546966
4	0x3d02db97	0.0319477
5	0xbd3d6941	-0.046242956
6	0x3ce64113	0.028107202
7	0x3d3f8955	0.04676183
8	0xbdef7343	-0.11691906
9	0x3c97f40e	0.018548992
10	0xbda5eace	-0.08101426
11	0x3caf5d2e	0.021406736
12	0xbceb1073	-0.028694367
13	0xbd7c0a3e	-0.061533205
14	0xbdf66916	-0.12031762
15	0xbcf5476d	-0.029941285
16	0xbd60afff	-0.054855343
17	0xbcb9632e	-0.0226303
18	0xbd0242d1	-0.031802002
19	0xbd923c66	-0.07140426
20	0x3d88872c	0.06666407
21	0xbd0d99ba	-0.034570433
22	0xbd948c81	-0.072533615
23	0xbb3b4926	-0.0028577535
24	0xbd3e7c64	-0.046505347
25	0xbd831982	-0.064013496
26	0xbd180746	-0.03711631
27	0xbc458cd6	-0.012057504
28	0x3d9b66a5	0.07587937
29	0x3d4b65c9	0.049657617
30	0x3c096e64	0.008388136
31	0xbcea4fb7	-0.028602464
32	0xbd6d48ab	-0.05793063
33	0xbd4da563	-0.050206553
34	0xbd09f52e	-0.033681087
35	0x3d8d111d	0.0688803
36	0xbabce155	-0.0014410416
37	0xbd4bf630	-0.04979533
38	0x3c9ecb8f	0.019384174
39	0x3de00a5a	0.109394744
40	0x3de9258f	0.11384117
41	0x3daac41d	0.08338187
42	0xbdb82c5f	-0.08992838
43	0x3d004890	0.0313192
44	0x3d0199f8	0.031640977
45	0x3c7d0593	0.0154432235
46	0x3ce86d10	0.028372318
47	0xbdfd4c58	-0.12368077
48	0xbdac055d	-0.083994605
49	0x3d576202	0.052583702
50	0xbd003f27	-0.031310227
51	0xbd29bb62	-0.041438468
52	0x3d6d76fb	0.057974797
53	0xbe0575f4	-0.13033277
54	0x3d71a100	0.058991432
55	0x3d92bf03	0.07165339
56	0x3c90573d	0.017619723
57	0xbdae482b	-0.08509859
58	0x3bcdb6e0	0.006277904
59	0xbc053699	-0.008130693
60	0x3d180683	0.037115585
61	0xbd6878d1	-0.056755845
62	0xbd28afc3	-0.041183244
63	0x3b7f8f61	0.0038995373
64	0xbc3b03ec	-0.011414509
65	0xbbdfd677	-0.006830986
66	0x3dca529a	0.09879036
67	0x3c18a7ad	0.009317321
68	0x3cdbfc2f	0.026853649
69	0xbbbcdd5e	-0.0057636937
70	0xbd978353	-0.07398095
71	0xbddff375	-0.109351076
72	0xbd27705f	-0.04087865
73	0x3d81dfa4	0.06341484
74	0x3c3d9b9c	0.011572745
75	0xbca1ba19	-0.019742059
76	0x3d3f73bb	0.04674123
77	0x3d9a0bfa	0.075218156
78	0x3d913d0b	0.07091721
79	0x3ce24cce	0.027624514
80	0x3d57d74f	0.05269557
81	0x3cec7fc0	0.02886951
82	0xbb8d2a6e	-0.0043080365
83	0x3d5447ae	0.05182617
84	0xbd4450ff	-0.047928806
85	0x3ca4a29c	0.02009707
86	0x3dda68e4	0.106645375
87	0xbd074640	-0.03302598
88	0xbd81b97d	-0.06334207
89	0xbcac9cde	-0.021070894
90	0xbe072305	-0.13196953
91	0xbd4a4325	-0.04938044
92	0x3dc45a01	0.095874794
93	0x3b802bbf	0.003911465
94	0x3d550461	0.05200613
95	0xbd0bd4ec	-0.034138605
96	0xbd85f0f4	-0.06540099
97	0x3d3cb22b	0.04606835
98	0xbe639bc2	-0.22227386
99	0x3dafd648	0.08585793
100	0x3e5ce379	0.21571149
101	0xbd4db1cc	-0.05021839
102	0xbb828977	-0.0039836722
103	0xbd4aa02d	-0.04946916
104	0xbc9cb7d1	-0.01913062
105	0xbdaca888	-0.08430582
106	0xbcdb5e9b	-0.02677851
107	0x3db22d2d	0.08700023
108	0xbdbdff8e	-0.09277259
109	0x3d3bd502	0.045857437
110	0x3d392d73	0.04520936
111	0xbcdbfb04	-0.026853092
112	0x3db16d1e	0.086633906
113	0x3e2e16bc	0.1700086
114	0xbc9014dc	-0.017588072
115	0x3d7b4376	0.061343633
116	0xbce71dba	-0.028212417
117	0xbd1e0c92	-0.038586207
118	0xbd89cf1e	-0.067289576
119	0xbdea57d2	-0.11442532
120	0x3cc29212	0.023751292
121	0x3d362bae	0.04447525
122	0xbc4438a0	-0.011976391
123	0x3da0beea	0.07848914
124	0x3db466f9	0.08808703
125	0x3d0f29e2	0.034952052
126	0xbc8c1e58	-0.017104313
127	0x3d387615	0.045034487
128	0xb8545800	-5.0626695e-05
129	0xbcb21270	-0.021737307
130	0xba080380	-0.000518851
131	0x3d9622d2	0.0733086
132	0xbc44903a	-0.011997277
133	0x3cd56ef7	0.026053889
134	0x3d89096e	0.06691252
135	0xbb79d616	-0.003812199
136	0x3d03ec10	0.03220755
137	0xbc2d1b5a	-0.010565603
138	0x3da3cf87	0.07998567
139	0x3d5fb569	0.054616366
140	0xbd97ad1c	-0.07406065
141	0xbb8d95a4	-0.004320817
142	0xbbb6e075	-0.0055809566
143	0x3d2291a4	0.039689675
144	0xbca048ca	-0.019565959
145	0xbdd144db	-0.10218211
146	0xbe14b8c4	-0.14523607
147	0x3dcaeee0	0.09908843
148	0x3d13e32c	0.03610532
149	0xbc9d31c4	-0.01918877
150	0xbba0df95	-0.0049094656
151	0x3da40abe	0.080098614
152	0xbbd1bccb	-0.0064006797
153	0x3d8db137	0.06918567
154	0x3c81bc16	0.015836757
155	0xbc3ee5d0	-0.011651471
156	0xbd1b4b74	-0.037913755
157	0x3c8d9529	0.01728304
158	0xbccc3ee2	-0.024932329
159	0xbc5c0482	-0.013428809
160	0xbd8b2bc2	-0.067954555
161	0xbd1b80e0	-0.0379647
162	0xbc44cb32	-0.012011336
163	0xbc19c468	-0.009385206
164	0x3c9bcfe0	0.019020021
165	0xbd048ff1	-0.032363836
166	0xbce5e439	-0.028062927
167	0xbcc692f0	-0.024239987
168	0xbd47453d	-0.048650015
169	0x3d9632de	0.07333921
170	0xbdc94d59	-0.09829206
171	0xbcaa36b0	-0.02077803
172	0xbdd5d12a	-0.104402855
173	0x3bb9bcc4	0.0056682546
174	0xbcdf1d3e	-0.027235623
175	0xbd9aba0a	-0.075550154
176	0xbd4cf707	-0.05004027
177	0x3ce61a29	0.028088646
178	0xbda304f0	-0.07959926
179	0x3db695e1	0.08915306
180	0xbcb7ae51	-0.022421988
181	0x3a4677d6	0.00075709575
182	0xbcf42174	-0.029801108
183	0x3cf1b1cb	0.029503724
184	0xbd02ddf7	-0.031949963
185	0x3dbeca0e	0.093158826
186	0xbd78054d	-0.06055193
187	0x3d622901	0.055214886
188	0xbda9ccbf	-0.08291005
189	0x3df05389	0.11734683
190	0x3d4bba6e	0.04973834
191	0x3d8fa725	0.07014302
192	0x3d1d7418	0.038440794
193	0xbd12008b	-0.03564505
194	0x3d402789	0.046912704
195	0x3bef155a	0.0072962465
196	0x3a713ec0	0.0009202771
197	0xbe51ac4d	-0.20475884
198	0x3d6ccdbf	0.057813402
199	0x3c151e22	0.0091014225
200	0x3d97396e	0.07384001
201	0xbb8f3022	-0.0043697516
202	0xbdad95f2	-0.084758654
203	0xbc51f93e	-0.012815772
204	0x3d284241	0.04107881
205	0xbcd69db7	-0.026198251
206	0x3c747920	0.014921457
207	0x3d2541af	0.040345844
208	0x3cefe754	0.02928511
209	0xbcd7295b	-0.026264837
210	0x3d9642dd	0.07336972
211	0xbcf90267	-0.030396653
212	0x3d703dbb	0.05865262
213	0xbd24ca16	-0.040231787
214	0x3bde6723	0.006787197
215	0xbc33514c	-0.010944676
216	0xba90a20f	-0.0011034625
217	0x3d7d77b1	0.061881725
218	0x3dc092aa	0.09402974
219	0xbe157d39	-0.1459855
220	0xbda35de3	-0.07976892
221	0x3a5dbf80	0.00084590167
222	0x3d26c01f	0.040710565
223	0x3de0aab2	0.109700575
224	0xbd93dbb2	-0.07219638
225	0x3d4f668b	0.050634902
226	0x3de11e81	0.10992146
227	0xbd2f707f	-0.042831894
228	0xbd927955	-0.071520485
229	0x3c2ce8ac	0.01055352
230	0xbe01316e	-0.12616512
231	0x3d56ce22	0.052442677
232	0xbc9ec925	-0.019383023
233	0xbd93b784	-0.07212737
234	0x3d30de99	0.043181036
235	0xbdb81f29	-0.08990318
236	0xbd8263ba	-0.063666776
237	0x3c13c028	0.009017982
238	0xbd8088bc	-0.0627608
239	0x3c0473e0	0.008084267
240	0xbbd7b874	-0.006583268
241	0x3b9a1be7	0.0047030332
242	0xbdd40202	-0.103519455
243	0x3c59aa34	0.0132852085
244	0xbd1eabf2	-0.0387382
245	0xbd1a4923	-0.037667405
246	0x3d2bcbb1	0.041942302
247	0x3da37863	0.07981946
248	0xbd935a63	-0.07194974
249	0x3ce6824c	0.028138302
250	0xbda093fb	-0.07840725
251	0x3da279ab	0.079333626
252	0x3d1ff587	0.039052512
253	0x3dca9150	0.098909974
254	0x3caa5c2f	0.02079591
255	0x3cdce65a	0.026965309

fc1.bias f4 [400]
0	0xbdb20b09	-0.08693511
1	0xbdb39ced	-0.087701656
2	0x3e0666a0	0.13125086
3	0x3caa652f	0.020800201
4	0xbdf85742	-0.12126018
5	0xbe300126	-0.17187938
6	0xbe349036	-0.17633137
7	0xbdece36d	-0.115668155
8	0xbe187339	-0.14887704
9	0xbdce29df	-0.1006658
10	0x3e067cbe	0.13133523
11	0xbd57efa1	-0.052718762
12	0x3e39ed64	0.18156964
13	0xbd160907	-0.036629703
14	0xbdec525d	-0.11539147
15	0xbd8bddb2	-0.068293944
16	0xbe08d8b3	-0.13363914
17	0xbe01b43b	-0.12666409
18	0xbdb202a4	-0.0869191
19	0x3d13a27f	0.03604364
20	0xbdbc24f6	-0.09186737
21	0xbd03ffad	-0.032226253
22	0xbd90a399	-0.07062454
23	0xbc90cd5b	-0.017676046
24	0x3b0215eb	0.001984949
25	0xbe316524	-0.17323738
26	0xbda1b2ba	-0.078954175
27	0x3e6660dd	0.22497888
28	0x3e3ef67b	0.18648712
29	0x3cb62291	0.02223328
30	0xbdeab04f	-0.114594094
31	0x3e0176d5	0.12642987
32	0x3df100cf	0.11767732
33	0xbd6fe025	-0.05856337
34	0x3d75ccc8	0.060009748
35	0xbcef4038	-0.029205427
36	0xbe007bda	-0.12547246
37	0x3e32110f	0.1738932
38	0x3e004af7	0.12528597
39	0xbbc83b09	-0.006110553
40	0x3e4962bb	0.19666569
41	0x3d8cebad	0.06880889
42	0x3e090e6f	0.13384412
43	0x3d9ffcd5	0.07811896
44	0x3d8feba4	0.07027367
45	0x3d252fed	0.04032891
46	0x3dc9b8c9	0.09849698
47	0x3e68327a	0.22675505
48	0x3dbd318a	0.092379645
49	0xbd99fd3f	-0.07519006
50	0x3cce08f5	0.025150755
51	0x3e55e2c9	0.20887293
52	0x3daf0be0	0.08547187
53	0x3df28e90	0.11843598
54	0xbdb5068c	-0.08839139
55	0x3e248ab9	0.16068543
56	0x3d2962c6	0.041353963
57	0xbe04e481	-0.12977792
58	0xbc645186	-0.013935452
59	0x3dabf9a2	0.08397223
60	0xbe2927cd	-0.16519089
61	0x3cd103f0	0.025514573
62	0x3dd15efa	0.102231935
63	0xbd9a719b	-0.075412
64	0xbda4ccd7	-0.080468826
65	0xbd68cf2a	-0.056838192
66	0x3dc57887	0.096421294
67	0xbdb40689	-0.08790309
68	0x3e10743b	0.14106838
69	0x3d2f0f85	0.04273941
70	0x3d975ef0	0.07391155
71	0xbc94e0fd	-0.018173689
72	0x3db3b004	0.08773807
73	0x3c8e4f77	0.017371876
74	0x3d2fbeb3	0.042906474
75	0x3d9f59d7	0.077808075
76	0xbd4e0058	-0.050293297
77	0xbcab6221	-0.020920815
78	0x3e4ebc91	0.2018912
79	0x3c8424eb	0.016130885
80	0x3cdf0ff0	0.02722928
81	0xbbac694e	-0.0052615767
82	0x3d00f96e	0.031487875
83	0xbdaf5576	-0.08561222
84	0x3d9bbf6c	0.0760487
85	0x3df08ac2	0.11745216
86	0x3c5d6fd9	0.013515436
87	0x3dead1f8	0.114658296
88	0x3e315ba8	0.1732012
89	0xbe1719b5	-0.147559
90	0xbdfc20e9	-0.123109646
91	0xbd971464	-0.07376936
92	0x3b48323f	0.0030547527
93	0xbd5b9942	-0.053612955
94	0xbd5a887c	-0.053352818
95	0xbe063c97	-0.1310905
96	0xbc96c8a1	-0.018406214
97	0x3e1d5a7d	0.1536655
98	0x3b9a05f9	0.004700419
99	0x3de3c04c	0.11120662
100	0xbd08662c	-0.033300564
101	0x3e131a2e	0.14365456
102	0xbdb91692	-0.09037508
103	0x3e05b35a	0.13056698
104	0x3d802bc0	0.06258345
105	0x3e50d82f	0.20394967
106	0x3e0c099b	0.13675539
107	0x3c94e5fd	0.018176073
108	0xbc8b0459	-0.016969847
109	0xbd84ccdf	-0.064843886
110	0x3bf5119e	0.007478907
111	0xbddce2a3	-0.10785415
112	0xbb3e9cde	-0.00290852
113	0xbd5ff216	-0.05467423
114	0x3d899106	0.06717114
115	0x3e420fbb	0.18951313
116	0x3c3cb30e	0.011517299
117	0x3c86f42a	0.016473848
118	0xbe6d085f	-0.23147725
119	0xbdf5e981	-0.12007428
120	0xbdf40f61	-0.11916996
121	0xbdc16d38	-0.0944466
122	0xbe17578f	-0.14779495
123	0x3d84d776	0.064864084
124	0xbdbd6778	-0.09248251
125	0x3d950e8a	0.07278164
126	0x3e049f9c	0.12951511
127	0xbce6cd50	-0.028174073
128	0x3d72f4ff	0.059315678
129	0x3db00a6d	0.085957386
130	0xbe5069df	-0.20352887
131	0x3e22ee65	0.15911253
132	0x3e3bb1d1	0.1832955
133	0x3e532b7f	0.20622061
134	0xbd1a374c	-0.03765039
135	0x3dcdecb2	0.10054912
136	0xbdb8a0f4	-0.09015074
137	0x3d45d0ff	0.048295017
138	0x3e31f3d2	0.17378166
139	0x3d39157c	0.045186505
140	0x3d52653c	0.051366076
141	0xbd4dbffe	-0.050231926
142	0xbdc148eb	-0.09437736
143	0x3dc4b9ac	0.096057266
144	0xbdd2c216	-0.10290925
145	0x3c992b48	0.018697396
146	0x3c3f853a	0.0116894785
147	0xbd2b04e2	-0.041752703
148	0xbe501790	-0.20321488
149	0xbdaad2ad	-0.083409645
150	0xbceb8752	-0.02875105
151	0x3d9e8c8e	0.077416524
152	0x3d118b9d	0.035533536
153	0xbe210369	-0.15723957
154	0xbdbc0f1c	-0.091825694
155	0xbde710b1	-0.112824805
156	0x3d96096a	0.07326014
157	0xbe4b9f38	-0.19884956
158	0xbdbd9539	-0.092569776
159	0xbd41ab90	-0.047282755
160	0xbe085126	-0.13312206
161	0x3dc7ad53	0.09749856
162	0x3d7eb9f2	0.06218905
163	0x3e0e1b2b	0.13877551
164	0x3e058f1f	0.13042878
165	0xbd9d7fdf	-0.07690405
166	0x37fb225e	2.9937535e-05
167	0x3e34417b	0.17603104
168	0xbcb49f87	-0.022048725
169	0xbdbc5e16	-0.09197633
170	0xbbd4b2ec	-0.0064910557
171	0xbe39e8ee	-0.18155262
172	0xbd0bd831	-0.034141723
173	0xbcc87049	-0.024467604
174	0xbe1488e7	-0.14505349
175	0x3e58eb6f	0.21183561
176	0xbe0771f4	-0.13227063
177	0xbc1d9086	-0.009616977
178	0x3dd4444a	0.103645876
179	0x3a8e9b38	0.0010879999
180	0x3d4135d6	0.047170483
181	0xbbe7ea1d	-0.007077469
182	0xbd223b0d	-0.039607096
183	0xbda30d7f	-0.079615586
184	0xbd2e6336	-0.042575084
185	0xbdd23136	-0.102632925
186	0xbdb46037	-0.08807414
187	0xbd94be29	-0.07262833
188	0x3df3c80a	0.11903389
189	0x3e5a06b4	0.2129162
190	0x3d767853	0.060173344
191	0xbd99f5ec	-0.07517609
192	0xbdee6f74	-0.11642352
193	0x3dd0e371	0.10199631
194	0x3bf099b1	0.00734254
195	0x3d43f717	0.047843065
196	0xbdfb7de1	-0.12279869
197	0xbdd0b239	-0.10190243
198	0x3cfc34c8	0.030786887
199	0xbcbf38aa	-0.02334245
200	0xbd99da96	-0.07512395
201	0xbd67deb7	-0.05660888
202	0xbd8a07ee	-0.06739794
203	0xbd6a79bb	-0.057244997
204	0xbe29b622	-0.16573384
205	0x3d36ec75	0.044659097
206	0x3c877811	0.016536744
207	0x3c9bfb3b	0.019040694
208	0x3e00df50	0.12585187
209	0x3d9ba336	0.075994894
210	0xbc644c7b	-0.01393425
211	0x3dee191d	0.11625884
212	0x3a93f1f1	0.0011287314
213	0xbe674264	-0.2258392
214	0x3e2b3907	0.16720973
215	0xbe1c967d	-0.15291782
216	0xbe2aa7f5	-0.16665633
217	0xbd4f63f0	-0.050632417
218	0x3ccdcdd9	0.02512257
219	0x3dccaf94	0.09994426
220	0xbe2af1ff	-0.16693877
221	0xbe127e63	-0.14306025
222	0xbda9ee1e	-0.082973704
223	0xbdeb2e0b	-0.114833914
224	0x3e8fbdaf	0.28074405
225	0xbc2704dd	-0.010194031
226	0x3daab99f	0.08336186
227	0x3d8f7de7	0.07006436
228	0x3de89fcb	0.11358603
229	0xbd64dcd2	-0.055874653
230	0x3e02009c	0.12695545
231	0x3d7dae32	0.061933704
232	0x3da1625c	0.07880089
233	0xbdde4c37	-0.108543806
234	0xbd84ff5d	-0.06494019
235	0x3e0104ef	0.12599538
236	0xbcddfe85	-0.027098903
237	0xbde16ffe	-0.11007689
238	0xbe20cc24	-0.15702873
239	0xbd49c650	-0.04926139
240	0x3deef48a	0.11667736
241	0xbc52c753	-0.012864905
242	0x3dc9204e	0.09820615
243	0x3d95a874	0.073075205
244	0xbdda4b84	-0.10658935
245	0xbdc45332	-0.09586181
246	0x3dd640ff	0.10461616
247	0x3df1c6ec	0.118055195
248	0xbd7e85ca	-0.06213931
249	0xbe1e63d1	-0.15467764
250	0x3d876944	0.06611875
251	0x3d966da1	0.07345129
252	0xbc57a4b0	-0.013161823
253	0xbde5c273	-0.11218729
254	0x3e456509	0.19276823
255	0x3daa092d	0.083025314

fc2.weight f4 [300, 400]
0	0x3c142bd1	0.00904365
1	0x3d93201d	0.071838595
2	0x3dd5663d	0.10419891
3	0x3d3620c8	0.044464856
4	0x3d2c138c	0.04201083
5	0xbdfcb099	-0.12338371
6	0x3dedaf8d	0.11605749
7	0x3b950646	0.004547867
8	0x3e14391c	0.1447491
9	0xbd898741	-0.06715251
10	0xbe096f75	-0.13421424
11	0xbde88113	-0.11352744
12	0x3d25e9b8	0.040506095
13	0x3c9cd1d2	0.019143019
14	0xbc6f4dc5	-0.014605944
15	0x3ca78ea9	0.020453768
16	0x3e3ba1ec	0.18323487
17	0xbce523b5	-0.027971128
18	0x3d815601	0.06315232
19	0x3e1f2488	0.1554128
20	0x3de23ecb	0.11047133
21	0xbc97ffd9	-0.018554615
22	0xbd63e6b7	-0.05563995
23	0xbd0efa54	-0.0349067
24	0x3c3d0686	0.0115372
25	0xbd1ff958	-0.039056152
26	0xbd674efe	-0.056471817
27	0xbe42408c	-0.18969935
28	0x3c07a4a1	0.008278997
29	0xbe04eb76	-0.12980446
30	0x3e2331da	0.15936986
31	0x3c5c68bb	0.013452704
32	0x3c70bfc6	0.01469416
33	0xbd0b0221	-0.033937577
34	0x3d98d052	0.07461609
35	0xbe027f7e	-0.12743947
36	0xbda97754	-0.08274713
37	0xbd405152	-0.046952553
38	0xbcc0c503	-0.023531443
39	0x3d8a5e18	0.06756228
40	0x3da65014	0.081207424
41	0x3de4f928	0.11180335
42	0x3b9afbf5	0.0047297426
43	0xbc5444a3	-0.012955817
44	0x3d70d5fb	0.058797818
45	0x3d2bcf56	0.041945778
46	0xbd8c2a77	-0.06844037
47	0xbdaafe58	-0.083492935
48	0x3d56c172	0.052430578
49	0xbe24a172	-0.16077211
50	0x3dd0e777	0.102003984
51	0xbc0c4471	-0.00856124
52	0xbd9530b0	-0.07284677
53	0xbd8d358e	-0.0689498
54	0x3d45e602	0.048315056
55	0x3c41fc58	0.011839949
56	0x3c97f4d9	0.01854937
57	0x3d8a2955	0.06746165
58	0xbbd7f54e	-0.006590522
59	0x3cd37340	0.025811791
60	0xbe0d5e9c	-0.13805622
61	0xbcf4f5b1	-0.029902311
62	0x3ace85a3	0.001575638
63	0x3c7e8e87	0.015536911
64	0x3ca8dbb3	0.020612573
65	0x3d6dd3ec	0.058063433
66	0xbdde4b96	-0.108542606
67	0xbe4c2086	-0.19934282
68	0x3d6fae2e	0.05851572
69	0xbd8b7f04	-0.06811336
70	0x3c42c0aa	0.011886755
71	0x3d8e8600	0.06959152
72	0xbc5210af	-0.0128213605
73	0x3de6e4ff	0.11274146
74	0xbbbe9050	-0.0058155432
75	0xbde0f7d0	-0.109847665
76	0xbe67cde7	-0.2263714
77	0xbda34222	-0.07971598
78	0x3da46cba	0.080285504
79	0xbdf0c422	-0.11756159
80	0x3ddb22e6	0.10700016
81	0xbd409333	-0.04701538
82	0x3d38c33d	0.04510807
83	0x3dd2d483	0.1029444
84	0xbde82c7f	-0.11336612
85	0x3b156a6e	0.0022799033
86	0x3e2eebf5	0.17082198
87	0x3d217214	0.039415434
88	0x3c7e1f02	0.0155103225
89	0xbd144fda	-0.036208965
90	0x3c80bb51	0.01571432
91	0x3dfd326a	0.12363131
92	0xbc2e0858	-0.0106221065
93	0xbc91a1c2	-0.017777327
94	0x3c6f026d	0.014587981
95	0x3cd39e07	0.02583219
96	0xbd6b217a	-0.057404973
97	0x3ca4ab12	0.020101104
98	0x3d405cb6	0.046963416
99	0xbd193731	-0.03740615
100	0xbd0357c4	-0.03206612
101	0x3d1034bc	0.03520654
102	0x3d73c11a	0.059510328
103	0x3ca0e15e	0.019638713
104	0xbe20c70d	-0.15700932
105	0xbd22ba85	-0.03972866
106	0xbc852448	-0.016252652
107	0x3d137435	0.035999496
108	0x3d9781d5	0.0739781
109	0xbe67a469	-0.22621311
110	0xbcc176b4	-0.023616172
111	0x3e06331f	0.13105439
112	0xbd378909	-0.04480842
113	0xba538bd8	-0.00080698496
114	0xbdf2dfd1	-0.11859096
115	0xbdc97ebb	-0.09838625
116	0x3d8ceac0	0.068807125
117	0x3dc447cc	0.09584007
118	0x3dbd15cd	0.09232674
119	0x3cc8c64f	0.024508623
120	0xbcff07db	-0.031131675
121	0xbcc79ff1	-0.024368258
122	0x3d3af979	0.045648072
123	0x3d917db5	0.07104055
124	0xbdc93215	-0.098240055
125	0x3ce5f14f	0.028069166
126	0xbe519548	-0.20467103
127	0x3d43f2c0	0.047838926
128	0x3d93b03d	0.07211349
129	0x3d8991a4	0.06717232
130	0x3db0ec9b	0.08638879
131	0x3e088830	0.13333201
132	0xbdadd791	-0.08488382
133	0xbc9374da	-0.018000055
134	0xbd050469	-0.03247491
135	0xbd442b22	-0.047892697
136	0x3bb3f644	0.0054920036
137	0x3c58afb2	0.013225483
138	0x3d5ce684	0.053930774
139	0xbe101c82	-0.14073375
140	0x3d407ddf	0.04699504
141	0x3ded55fc	0.11588666
142	0xbd0d546c	-0.03450434
143	0x3d4199a4	0.047265664
144	0xbdb0fe7f	-0.08642291
145	0xbdf30c99	-0.11867637
146	0xbd6f71ac	-0.058458015
147	0x3d9f2b3f	0.077719204
148	0xbce5821b	-0.02801614
149	0xbe6519e0	-0.22373152
150	0xbd71947f	-0.058979508
151	0x3da1d3f0	0.07901752
152	0x3de2fcbd	0.11083362
153	0x3d3bd643	0.045858633
154	0x3dc09770	0.094038844
155	0x3c66b16d	0.014080388
156	0x3cc2c37b	0.023774853
157	0xbc43d2e0	-0.011952132
158	0xbd8796d8	-0.06620568
159	0xbc19b133	-0.0093806265
160	0x3e0aac04	0.13542181
161	0xbc817e12	-0.015807185
162	0x3d83b291	0.06430543
163	0xbc2bd5b9	-0.010487967
164	0xbdc1c726	-0.09461813
165	0x3d2f58f7	0.042809453
166	0x3d403c84	0.046932712
167	0x3e26d3db	0.16291754
168	0x3c2568e7	0.010095811
169	0xbe3878e7	-0.1801487
170	0x3c9931f2	0.018700574
171	0x3d00acf8	0.031414956
172	0x3dd581c4	0.104251415
173	0xbd56ee00	-0.05247307
174	0xbe41c8ad	-0.18924208
175	0xbc16738f	-0.009182825
176	0xbccd298e	-0.025044229
177	0x3d297138	0.04136774
178	0x3ccde0a1	0.025131525
179	0xbba94ab5	-0.0051663765
180	0x3d0d20dd	0.03445517
181	0xbe0a6e67	-0.13518678
182	0x3d371183	0.044694435
183	0x3da9abc8	0.08284718
184	0xbdbe23cc	-0.092841715
185	0xbcdcd0b5	-0.026954988
186	0xbcb1cb12	-0.021703277
187	0xbdc304da	-0.0952241
188	0xbd6f80f7	-0.0584726
189	0x3d60e325	0.054904122
190	0x3d83cac7	0.06435161
191	0x3bbfc950	0.0058528557
192	0xbd912c96	-0.07088582
193	0x3d83933e	0.064245686
194	0x3d833bd4	0.06407896
195	0x3ca745bf	0.020419
196	0xbd9b0014	-0.07568374
197	0x3e2e7bcf	0.17039417
198	0x3de0ba7e	0.109730706
199	0x3dadbb2b	0.08482965
200	0xbca6540b	-0.020303747
201	0x3b96b3d7	0.0045990753
202	0xbdc3977c	-0.09550378
203	0xbcc05fe5	-0.023483226
204	0xbd2b467e	-0.041815273
205	0x3d5ac341	0.053408865
206	0xbba3de19	-0.0050008413
207	0xbd10b0df	-0.035324927
208	0x3bd9472e	0.0066307997
209	0x3d839e88	0.06426722
210	0x3c896a2e	0.016774263
211	0x3d591ce4	0.053006068
212	0xbe129426	-0.14314327
213	0xbe0f150f	-0.13972877
214	0xbd9c6961	-0.07637287
215	0x3d6e7a58	0.058222145
216	0x3d8858ad	0.066575386
217	0xbda7c042	-0.08190967
218	0x3c2d6846	0.010583943
219	0x394f1cd8	0.00019751803
220	0x3b8a7ef0	0.004226558
221	0x3cdc7721	0.026912274
222	0xbe0a44d3	-0.13502817
223	0xbd503dce	-0.05084019
224	0x3de96310	0.11395848
225	0x3d963ba3	0.073355936
226	0x3dc91823	0.09819057
227	0xbbc75818	-0.0060834996
228	0xbd161ebd	-0.036650408
229	0x3cd5c04a	0.026092667
230	0xbbcfb2b7	-0.006338443
231	0xbdb7345d	-0.089455344
232	0x3cd94cd1	0.026525887
233	0xbdf7f8d0	-0.12108004
234	0x3e8b5aa2	0.27217585
235	0x3d1982c8	0.03747824
236	0xbd3b5510	-0.04573542
237	0xbe051497	-0.12996136
238	0x3d57fc36	0.05273076
239	0xbd44dce6	-0.048062228
240	0x3dd37a6e	0.10326086
241	0x3cac0e0b	0.02100279
242	0x3d13848d	0.036015082
243	0xbcda9e86	-0.026686918
244	0xbdd54ea4	-0.1041539
245	0xbd5bfec0	-0.053709745
246	0x3d2cac41	0.04215646
247	0xbe014e6a	-0.12627569
248	0xbc296405	-0.010338788
249	0x3b55d098	0.0032625552
250	0x3d9e199f	0.077197306
251	0x3d063942	0.03276945
252	0x3c84e38f	0.01622179
253	0x3dcc02fb	0.09961506
254	0x3e10d31c	0.14143032
255	0x3d81a40f	0.0633012

fc2.bias f4 [300]
0	0x3d6743e8	0.056461245
1	0xbd1f82fa	-0.03894327
2	0xbc833f15	-0.01602129
3	0x3da4e85c	0.080521315
4	0x3d127d2e	0.035763912
5	0x3d545919	0.051842783
6	0xbd605667	-0.0547699
7	0x3d736bf1	0.059429113
8	0x3cc21f6b	0.023696622
9	0x3d6ec3f6	0.05829235
10	0x3b8b9707	0.004259947
11	0xbc46cbf7	-0.01213359
12	0xbd0b41eb	-0.03399841
13	0x3c2f5c46	0.010703152
14	0x3d15afb0	0.0365445
15	0xbd0e8093	-0.034790587
16	0x3d0f94b2	0.035053916
17	0x3cbbc7a4	0.022922345
18	0x3d19df18	0.037566274
19	0xbcf375ea	-0.029719312
20	0x3d07eb53	0.033183407
21	0x3b13d993	0.0022560104
22	0xbc8722bb	-0.016496053
23	0x3d52fa34	0.051508144
24	0x3d858410	0.065193295
25	0xbcedb940	-0.029018998
26	0x3d0b9fcc	0.03408794
27	0xbbd1664a	-0.0063903676
28	0x3d838bb9	0.06423134
29	0x3d64392b	0.055718582
30	0x3d24a4dc	0.040196285
31	0x3c709a18	0.014685176
32	0x3d125afa	0.035731293
33	0x3d3f160a	0.046651877
34	0xbca791e9	-0.020455318
35	0x3d02111b	0.031754594
36	0x3c96bf5a	0.01840179
37	0xbce080f5	-0.027405242
38	0xbc18070f	-0.009279027
39	0x3d785ab6	0.060633384
40	0x3d02f009	0.031967197
41	0x3cdb5aa6	0.026776623
42	0x3c854431	0.016267868
43	0x3cd3f235	0.02587233
44	0x3c679c83	0.014136436
45	0xbc48881a	-0.01223948
46	0x3baba781	0.005238474
47	0xbb822c3c	-0.0039725583
48	0xbc2502be	-0.010071455
49	0xbceab834	-0.028652288
50	0xbcd82adc	-0.026387624
51	0xbb2b7e5e	-0.002616785
52	0xbbe37460	-0.006941363
53	0xbc4be186	-0.012443906
54	0x3c0ab5e7	0.00846622
55	0xbd054d70	-0.032544553
56	0x3b9002fa	0.004394886
57	0xbd2b1dab	-0.04177634
58	0xbd9c3fee	-0.07629381
59	0xbd17ed43	-0.037091505
60	0x3d93abb8	0.07210487
61	0xbcd53c67	-0.026029779
62	0xbc958561	-0.018252077
63	0x3cc2b9d2	0.023770247
64	0x3d25bae5	0.04046144
65	0x3ca4c91d	0.02011543
66	0x3d6133a3	0.054980885
67	0x3adccce8	0.0016845735
68	0xbd128120	-0.035767674
69	0xbd9bc3e1	-0.0760572
70	0x3d0181a2	0.031617768
71	0xbcdc906c	-0.026924334
72	0x3d3ae5f3	0.045629453
73	0xbd763aa7	-0.06011453
74	0x3ca3c7ab	0.01999267
75	0xbd84a0dd	-0.06475995
76	0xbd147bc0	-0.03625083
77	0x3d78a658	0.060705513
78	0xbcab0ff6	-0.020881634
79	0xbc5aaa0d	-0.013346207
80	0xbc9789e8	-0.018498376
81	0xbda3a587	-0.07990556
82	0xbcec8200	-0.028870583
83	0x3c941c3d	0.018079871
84	0xbb9c1d35	-0.004764224
85	0x3ce0a5d7	0.027422829
86	0x3b2e0432	0.0026552794
87	0x3c186162	0.009300562
88	0xbbbb39ef	-0.0057136933
89	0x3d3033c3	0.043018114
90	0xbcbc0eb2	-0.022956226
91	0xbc3d1a7e	-0.011541961
92	0x3db29528	0.087198555
93	0x3b12ce21	0.0022400694
94	0xbc0c2c97	-0.008555553
95	0x3ce2a854	0.027668156
96	0xbc515a93	-0.012777942
97	0x3d009a61	0.031397227
98	0xbbdab6c3	-0.006674619
99	0x3d9619bf	0.073291294
100	0x3c869541	0.016428592
101	0x3d208c36	0.039196216
102	0xbc8879f1	-0.016659709
103	0x3b80c26e	0.003929428
104	0x3bcbbd64	0.0062176455
105	0xbc0fc949	-0.008776017
106	0x3b0a9814	0.0021147775
107	0x3c1dbbda	0.009627307
108	0x3d623250	0.055223763
109	0x3d95cb0a	0.07314117
110	0x3c83ba20	0.016079962
111	0x3d20031f	0.039065477
112	0x3d899af8	0.06719011
113	0xbd379207	-0.044816997
114	0xbc5c7470	-0.013455495
115	0x3cf6deeb	0.030135592
116	0x3bf6ccfb	0.00753176
117	0x3d2fa636	0.04288312
118	0x3d290067	0.04126015
119	0x3d54d255	0.0519584
120	0xb96ddbe4	-0.00022683997
121	0xbcb4429b	-0.022004416
122	0x3d77d652	0.060507126
123	0x3cb83d15	0.022490064
124	0x3c934aa7	0.017979933
125	0x3c276db6	0.010219028
126	0x3d6af85b	0.057365756
127	0x3c4602a7	0.012085593
128	0xbc21bd0e	-0.009871734
129	0x3ceb3b15	0.028714696
130	0x3cb05c26	0.021528315
131	0x3ccbec2e	0.024892893
132	0x3cf4c0fd	0.02987718
133	0xbba4db1f	-0.005031004
134	0x3d20e878	0.0392842
135	0x3cfb9016	0.030708354
136	0x3ccbec41	0.024892928
137	0x3da926e4	0.08259371
138	0x3cd859e7	0.026410056
139	0x3cb10c4c	0.021612309
140	0xbd238a22	-0.039926656
141	0xbbde2bb5	-0.0067801126
142	0xbd07157b	-0.03297947
143	0x3b899fc3	0.0041999533
144	0x3c93f34e	0.018060353
145	0x3d45b44d	0.04826765
146	0x3d40d2ac	0.047075912
147	0x3af75b62	0.0018871839
148	0xbcd9e6f3	-0.026599383
149	0x3d381491	0.04494149
150	0xbd0a4b22	-0.03376306
151	0x3d53a508	0.051671058
152	0x3d4bfab6	0.049799643
153	0x3d6bc0cd	0.057556916
154	0x3ac869af	0.0015290285
155	0x3ca017b4	0.019542553
156	0xbc85b663	-0.01632232
157	0x3d062b4d	0.03275614
158	0xbcdbb254	-0.026818432
159	0x3bd34699	0.006447625
160	0x3cad5f4e	0.021163609
161	0x3d3d49d0	0.04621297
162	0xbd6b5586	-0.05745461
163	0xbd171101	-0.03688145
164	0x3bb1090e	0.0054026907
165	0x3c7323f6	0.014840117
166	0xbce6fc4e	-0.02819648
167	0x3daf0492	0.085457936
168	0x3bef8c9f	0.0073104645
169	0x3c08eb0f	0.008356824
170	0x3d43857b	0.04773472
171	0xbd5ba960	-0.053628325
172	0xbc383388	-0.011242755
173	0x3afd63d8	0.0019332124
174	0x3c1be9d1	0.009516195
175	0xbcf15013	-0.029457128
176	0xbd1b9619	-0.03798494
177	0x3c0b92ec	0.008518916
178	0x3c283ae5	0.010267948
179	0x3be01344	0.006838234
180	0xbd421121	-0.047379617
181	0x3ce07f89	0.027404564
182	0x3d1d135c	0.03834854
183	0xbd11a47d	-0.03555726
184	0x3bc51dd0	0.006015517
185	0x3a5a5fd9	0.00083303225
186	0x3d806d43	0.0627084
187	0x3cda5666	0.026652526
188	0x39715007	0.00023013364
189	0xbb85f4ac	-0.004088005
190	0xbc94172c	-0.018077455
191	0x3db52990	0.08845818
192	0x3bc50b9b	0.0060133464
193	0xbd5b6228	-0.053560406
194	0x3db817ff	0.08988952
195	0x3b39e952	0.002836783
196	0xbd8204c4	-0.06348565
197	0xbcf7d57d	-0.030253166
198	0xbd38b099	-0.04509029
199	0x3d763ec4	0.06011845
200	0x3d8d642d	0.06903873
201	0x3ca47fd8	0.020080492
202	0xbc053e5e	-0.008132545
203	0x3d473c2b	0.048641365
204	0x3c74f0eb	0.014950017
205	0x3cf59b4a	0.029981274
206	0x3dd0a342	0.10187389
207	0x3b31e18b	0.002714249
208	0xbd2cd5ae	-0.04219597
209	0x3cf3a80a	0.029743213
210	0xbd11a0dc	-0.035553798
211	0x3d3de9d8	0.04636559
212	0xbc9c17ed	-0.019054377
213	0x3da4ef60	0.0805347
214	0xbd5eb0b7	-0.054367747
215	0x3ce512b0	0.027963012
216	0x3ce0071f	0.027347146
217	0x3cfd16fc	0.030894749
218	0x3d1498f9	0.0362787
219	0x3ce8e455	0.02842919
220	0xbcf4a010	-0.02986148
221	0x3bea3a08	0.007148031
222	0x3ce00531	0.027346225
223	0xbc9ed6b8	-0.019389495
224	0x3d900e93	0.0703403
225	0xbbecdfe9	-0.0072288406
226	0xbc72598f	-0.01479186
227	0x3c2f17a4	0.010686789
228	0xbd5d09f2	-0.053964563
229	0x3cd4f0ae	0.025993671
230	0x3cdae378	0.026719794
231	0x3d784462	0.06061209
232	0x3c825913	0.015911615
233	0x3cc49b26	0.023999762
234	0x3d69a4b0	0.057041824
235	0x3c89b15e	0.016808208
236	0xbe018f0a	-0.12652221
237	0x3ca0d58d	0.019633079
238	0x3d0eb9b2	0.03484506
239	0xbbb4ae0a	-0.005513911
240	0x3c8f42a9	0.01748784
241	0x3dab74f3	0.08371916
242	0xbcb8e94b	-0.02257218
243	0xbcaed2ff	-0.021340845
244	0x3d9cab6d	0.076498844
245	0xbd87474a	-0.06605394
246	0x3d004ad1	0.03132135
247	0x3c3f2256	0.011665901
248	0x3d822efa	0.06356616
249	0xbd462231	-0.04837245
250	0x3cbfcf33	0.02341423
251	0xbd079ad7	-0.03310665
252	0xbb7b26a3	-0.003832259
253	0x3d2a23c3	0.04153801
254	0xbd284117	-0.0410777
255	0xbb499b0d	-0.0030762583

fc3.weight f4 [4, 300]
0	0x3d8b8428	0.06812316
1	0x3e452beb	0.19255035
2	0x3ec225fe	0.3791961
3	0x3b222ca7	0.0024745853
4	0xbe866593	-0.2624937
5	0x3cdc8e33	0.026923275
6	0x3e048bdb	0.12943976
7	0xbe5d69d8	-0.21622407
8	0x3e208842	0.15676978
9	0xbd6077e2	-0.05480183
10	0xbdaa933a	-0.083288625
11	0xbbaffa87	-0.0053704414
12	0xbe1facc6	-0.15593252
13	0xbdb8d8c3	-0.09025719
14	0xbeca0bda	-0.39462167
15	0xbc6249bb	-0.013811524
16	0x3d90144e	0.07035123
17	0x3e8607a8	0.26177716
18	0x3e146895	0.1449302
19	0x3e3e6332	0.18592528
20	0x3e3fcfac	0.18731564
21	0x3d1c3490	0.038136065
22	0xbe7b2ef3	-0.24529628
23	0x3c559e4e	0.013038231
24	0x3d604c04	0.054759994
25	0xbd9b5900	-0.07585335
26	0x3b73effc	0.00372219
27	0x3e4a9386	0.19782838
28	0xbe6466fb	-0.22304909
29	0xbe24ef4a	-0.16106907
30	0x3ce212f5	0.02759693
31	0x3e8d5d65	0.27610317
32	0xbd8414e9	-0.06449301
33	0xbe482124	-0.19543892
34	0x3e506a34	0.20353013
35	0x3e08df8d	0.13366528
36	0xbe038ba7	-0.12846242
37	0x3dbcf0f7	0.09225648
38	0x3e827513	0.25479946
39	0xbe20e128	-0.1571089
40	0xbe1451b3	-0.14484291
41	0xbde139ab	-0.109973274
42	0x3db52e7a	0.08846755
43	0xbda705df	-0.08155417
44	0xbe8a3d89	-0.27000073
45	0x3e97f64d	0.296801
46	0xbd167027	-0.03672805
47	0xbd2af464	-0.041736975
48	0xbdfc182e	-0.123092994
49	0x3c544efc	0.0129582845
50	0xbe565235	-0.20929797
51	0x3db9e77c	0.09077355
52	0x3e8e24ee	0.2776255
53	0xbcad7832	-0.021175478
54	0x3d1e642e	0.038669758
55	0x3e362b44	0.17789942
56	0x3cc1c5bb	0.023653856
57	0xbe02f856	-0.12790045
58	0x3e628146	0.22119626
59	0x3d2a9ff6	0.041656457
60	0xbc9e7dfd	-0.019347185
61	0xbe8556d6	-0.26042813
62	0x3cc81edb	0.024428776
63	0x3e2ccd2f	0.16875146
64	0xbc12297a	-0.008921022
65	0x3e0ebd56	0.13939413
66	0xbed43a0e	-0.41450542
67	0x3de857bf	0.11344861
68	0x3e21cbab	0.1580035
69	0xbea82c4c	-0.32846296
70	0x3ec5c8e7	0.3862984
71	0x3e501f17	0.2032436
72	0xbe4a180a	-0.19735733
73	0x3c4a257c	0.0123380385
74	0x3ef5ceef	0.4800944
75	0xbf093495	-0.5359586
76	0x3e3f7674	0.1869753
77	0xbeb44ac6	-0.35213298
78	0x3e44be8c	0.19213313
79	0x3e82ccb5	0.25546804
80	0xbd36f673	-0.044668626
81	0xbeb76d2a	-0.35825473
82	0xbdafec31	-0.08589972
83	0xbd1a10f9	-0.037613843
84	0x3e6a693a	0.22891703
85	0x3c8abda5	0.016936133
86	0xbdf41821	-0.11918665
87	0xbec165d6	-0.37773007
88	0xbd9cc88a	-0.07655437
89	0xbe7546b1	-0.23952748
90	0xbe81f5f4	-0.2538296
91	0x3c0654a4	0.008198891
92	0x3d9c1a66	0.076222226
93	0xbd53342d	-0.05156343
94	0x3a8614ac	0.0010229549
95	0xbe3425df	-0.17592572
96	0x3e054640	0.1301508
97	0xbe0eeb7a	-0.13957015
98	0xbe322e25	-0.17400415
99	0xbc4a2eee	-0.0123402905
100	0xbdfe628b	-0.12421139
101	0xbe6a5a66	-0.22886047
102	0x3e3db154	0.18524677
103	0x3dd92f35	0.10604707
104	0x3e65d5e2	0.22444871
105	0x3e689af1	0.22715355
106	0x3dec5cbf	0.115411274
107	0x3d2949fb	0.04133032
108	0x3df5d57c	0.120036095
109	0xbcd9422f	-0.026520817
110	0xbe201529	-0.15633072
111	0x3c8a7d7a	0.016905535
112	0x3df42ae6	0.11922245
113	0xbeb8e906	-0.36115283
114	0xbe8d5096	-0.27600545
115	0x3e630b3f	0.22172259
116	0xbd9f1cba	-0.07769151
117	0xbd1f162a	-0.038839497
118	0x3eb952d7	0.36196014
119	0x3ca15866	0.019695472
120	0x3cd63b4e	0.026151326
121	0x3e2f7d52	0.1713765
122	0x3df5c46f	0.12000357
123	0x3a161fdd	0.0005726794
124	0xbe311e12	-0.17296627
125	0x3d6fe125	0.058564324
126	0x3dba2b25	0.090902604
127	0x3c26e6fa	0.010186905
128	0x3db9cecf	0.09072649
129	0xbd876c9a	-0.06612511
130	0xbdd70c37	-0.10500377
131	0x3d052524	0.032506123
132	0xbd2fccc2	-0.04291988
133	0xbdab16e6	-0.08353977
134	0xbe0257c6	-0.12728795
135	0x3de78000	0.11303711
136	0x3de57d03	0.11205485
137	0xbe41c7de	-0.189239
138	0x3ea04ba1	0.313077
139	0xbddad61c	-0.10685369
140	0x3ec389c3	0.3819104
141	0x3b15d2b3	0.0022861182
142	0xbd887a4f	-0.066639535
143	0xbe3ce33c	-0.18446058
144	0x3c8fea33	0.01756773
145	0x3db46039	0.088074155
146	0xbdc618ad	-0.09672675
147	0x3e7ecd31	0.24882962
148	0x3eb592d5	0.35463586
149	0xbd602eb4	-0.05473204
150	0x3e5dac5b	0.2164778
151	0x3df70956	0.120623276
152	0xbb996691	-0.0046814163
153	0x3e047da2	0.1293855
154	0xbd5a4d92	-0.053296633
155	0xbbdfe1c6	-0.006832334
156	0x3e2f5688	0.17122853
157	0xbe624f54	-0.22100574
158	0x3e275a24	0.1634298
159	0xbe0d16ec	-0.13778275
160	0x3d3bb5dc	0.04582773
161	0x3ca17cd5	0.019712845
162	0xbd99b0eb	-0.075044475
163	0xbd836f31	-0.064176925
164	0x3d5b4670	0.05353397
165	0x3e35d112	0.17755535
166	0xbe804cfd	-0.25058737
167	0xbd75ff17	-0.060057726
168	0xbe863a43	-0.26216325
169	0xbc94334c	-0.018090867
170	0x3e70bb2c	0.235089
171	0xbe290496	-0.16505656
172	0xbece92e2	-0.40346438
173	0x3df1d973	0.11809053
174	0xbe9e7ada	-0.30953103
175	0xbe2012d5	-0.15632184
176	0x3dd0e0d2	0.10199131
177	0x3e158bf6	0.14604172
178	0x3d845028	0.06460601
179	0x3eb51cab	0.35373434
180	0x3c92e70b	0.017932435
181	0x3e27c5a9	0.16383995
182	0xbd6a56f6	-0.05721184
183	0x3e8994b8	0.26871276
184	0x3e03e729	0.1288115
185	0xbbc1e63f	-0.00591734
186	0x3e99adae	0.3001532
187	0x3dfe35f1	0.12412632
188	0x3e1cd649	0.15316118
189	0x3c92733c	0.017877214
190	0x3d9e5aae	0.077321395
191	0xbda55299	-0.08072395
192	0x3e347ed2	0.17626503
193	0xbea4f1d7	-0.3221576
194	0xbca62369	-0.020280557
195	0xbc97b221	-0.018517556
196	0x3e878695	0.26469865
197	0xbdc14347	-0.0943666
198	0xbe0f1bb7	-0.13975416
199	0xbd44236e	-0.04788535
200	0xbd3bbe1d	-0.045835603
201	0x3a8082c6	0.0009804599
202	0xbc83b340	-0.016076684
203	0x3df1f841	0.11814929
204	0x3db57f08	0.0886212
205	0xbe166ccf	-0.14689945
206	0xbd741d10	-0.05959803
207	0xbd723cfc	-0.05914019
208	0xbdcded6a	-0.10055049
209	0xbe386c31	-0.18010022
210	0xbe925846	-0.28582972
211	0xbd96943c	-0.07352492
212	0x3e0def95	0.13860925
213	0x3dcc17c2	0.09965469
214	0x3e64fb40	0.2236147
215	0xbe9a2e1e	-0.3011331
216	0x3ed5b18e	0.41737026
217	0xbde5e91d	-0.112261035
218	0xbe047bbf	-0.1293783
219	0xbeca54e7	-0.395179
220	0xbca8d22e	-0.020608034
221	0xbda16835	-0.07881204
222	0x3e14ef07	0.14544307
223	0xbe995a68	-0.29951787
224	0x3d7af0e9	0.061264906
225	0x3e985dab	0.29758963
226	0x3e12c0db	0.14331381
227	0xbe55d8fa	-0.20883551
228	0xbe1166ef	-0.14199422
229	0xbe0f02ee	-0.13965961
230	0xbe30839c	-0.17237705
231	0x3dca8779	0.098891206
232	0xbd8fee9b	-0.07027932
233	0x3c8f0847	0.017460002
234	0xbe0db882	-0.13839915
235	0xbba8c3ee	-0.0051503098
236	0xbe1cc95c	-0.15311188
237	0x3d022e54	0.031782463
238	0x3c8b7cea	0.017027337
239	0xbd494484	-0.049137607
240	0x3e069ebf	0.13146494
241	0x3c7c10bb	0.015384848
242	0x3dc5e166	0.09662132
243	0x3e20c295	0.15699227
244	0xbe0a5103	-0.13507466
245	0xbd98c623	-0.074596666
246	0xbd27ae0b	-0.040937465
247	0xbcf7225c	-0.030167751
248	0x3e5e7686	0.217249
249	0xbe7000b8	-0.23437774
250	0x3d22b469	0.039722834
251	0xbcc1af08	-0.023643032
252	0xbe50e55f	-0.20399998
253	0x3de6be80	0.11266804
254	0x3e215345	0.15754421
255	0x3bfcc69b	0.0077141053

fc3.bias f4 [4]
0	0xbc5ce109	-0.013481387
1	0x3c6373da	0.013882602
2	0x3c81658a	0.015795488
3	0x3d0302ef	0.03198522
